genUAPonQT/QAT/singleuqmodel/x_noisetst10000_w2a2_26.npy (npy, 12416 bytes, 1 tensors)

array f4 [1, 3, 32, 32]
0	0x3d270d40	0.04078412
1	0xbca70d60	-0.02039212
2	0xbda5724c	-0.08078441
3	0xbd7a9430	-0.06117648
4	0xbd540750	-0.051764786
5	0xbda70d74	-0.08156863
6	0xbd7a9430	-0.06117648
7	0xbd270d50	-0.04078418
8	0xbda70d74	-0.08156863
9	0xbd5a7418	-0.053333372
10	0x3d7a9418	0.06117639
11	0xbda70d74	-0.08156863
12	0xbca70d40	-0.02039206
13	0xbd4a6400	-0.049411774
14	0x3da70d6c	0.08156857
15	0xbd16fd70	-0.03686279
16	0x3ca70d20	0.020392
17	0xbcba5440	-0.022745252
18	0x3d270d70	0.0407843
19	0xbca70d80	-0.02039218
20	0xbca70d70	-0.02039215
21	0xbda70d74	-0.08156863
22	0xbdd0d0d0	-0.10196078
23	0x3dc5925c	0.096470565
24	0x3d270d50	0.04078418
25	0xbd109080	-0.035294056
26	0xbdd0d0d1	-0.101960786
27	0xbd03b720	-0.032157063
28	0xbd7a9430	-0.06117648
29	0xbd270d70	-0.0407843
30	0x3da70d70	0.0815686
31	0x3d7a9418	0.06117639
32	0xbdd0d0d1	-0.101960786
33	0xbd5a7408	-0.053333312
34	0x3d7a9428	0.06117645
35	0x3d270d78	0.04078433
36	0xbd270dd0	-0.040784657
37	0x3d7a9428	0.06117645
38	0xbd270d60	-0.04078424
39	0xbc86ed40	-0.016470551
40	0xbdd0d0cc	-0.10196075
41	0xbdd0d0cc	-0.10196075
42	0x3da70d6c	0.08156857
43	0x3dd0d0d1	0.101960786
44	0x3d956234	0.072941214
45	0xbd7a9430	-0.06117648
46	0x3da70d7c	0.08156869
47	0x3dd0d0d1	0.101960786
48	0xbd270d98	-0.04078445
49	0xb3c00000	-8.940697e-08
50	0x3d13c6f0	0.036078393
51	0xbdd0d0d1	-0.101960786
52	0x3da70d74	0.08156863
53	0x3ca70d80	0.02039218
54	0x3da70d94	0.08156887
55	0x3bb3e700	0.005490184
56	0x3d7a9400	0.0611763
57	0xbd7a9440	-0.06117654
58	0xbd7a9480	-0.061176777
59	0xbca70dd0	-0.020392329
60	0x3dd0d0cc	0.10196075
61	0x3d270d98	0.04078445
62	0x3ca70d70	0.02039215
63	0xbca70d70	-0.02039215
64	0xbd7a9420	-0.06117642
65	0xbc86ed60	-0.016470611
66	0xbd30b090	-0.043137133
67	0x3dd0d0d1	0.101960786
68	0xbda70d74	-0.08156863
69	0x3d7a9428	0.06117645
70	0x3d270d78	0.04078433
71	0xbd270d80	-0.04078436
72	0x3b807f80	0.003921449
73	0xbda70d74	-0.08156863
74	0xba4d9c00	-0.0007843375
75	0x3dd0d0d1	0.101960786
76	0x3c0d5a40	0.008627474
77	0xbd270db8	-0.040784568
78	0xbdd0d0d1	-0.101960786
79	0x3db3e70c	0.08784303
80	0x3d270d68	0.04078427
81	0xbd7a9430	-0.06117648
82	0x3dd0d0d1	0.101960786
83	0xbda70d6c	-0.08156857
84	0x3d472dc0	0.048627615
85	0x3c008000	0.007843018
86	0x3d808074	0.062745005
87	0x3ca70d60	0.02039212
88	0xbd270d70	-0.0407843
89	0x3da70d74	0.08156863
90	0xbda70d74	-0.08156863
91	0x3d270d88	0.04078439
92	0x3d674d98	0.056470484
93	0x3ca70d90	0.02039221
94	0xbd8ef55c	-0.06980392
95	0x3dd0d0d1	0.101960786
96	0xbdd0d0cc	-0.10196075
97	0x3dd0d0d1	0.101960786
98	0xbdd0d0d1	-0.101960786
99	0x3da70d78	0.08156866
100	0x3d270d70	0.0407843
101	0xbdd0d0d0	-0.10196078
102	0x3dd0d0d1	0.101960786
103	0xbbe74dc0	-0.007058829
104	0xbd7a9430	-0.06117648
105	0xbd109080	-0.035294056
106	0x3dd0d0cc	0.10196075
107	0xbd270d50	-0.04078418
108	0xbd7a9420	-0.06117642
109	0x3d808064	0.062744886
110	0xbd7a9430	-0.06117648
111	0xbdd0d0d0	-0.10196078
112	0x3d270d78	0.04078433
113	0xbd7a9420	-0.06117642
114	0x33c00000	8.940697e-08
115	0x3dd0d0cc	0.10196075
116	0x3d270d80	0.04078436
117	0xbda70d74	-0.08156863
118	0x3da70d74	0.08156863
119	0xbc4d9a60	-0.012549013
120	0xbdd0d0d1	-0.101960786
121	0x3dd0d0cc	0.10196075
122	0xbd270dc8	-0.040784627
123	0x3d7a9420	0.06117642
124	0xbda70d64	-0.08156851
125	0x3ca70d50	0.02039209
126	0x3d270d28	0.04078403
127	0xbda70d74	-0.08156863
128	0xbd7a9430	-0.06117648
129	0x3da70d70	0.0815686
130	0xbdd0d0d1	-0.101960786
131	0xbda70d74	-0.08156863
132	0x3da70d68	0.08156854
133	0xbcba53e0	-0.022745073
134	0x3db3e718	0.08784312
135	0x3da70d70	0.0815686
136	0xbd270d68	-0.04078427
137	0xbd30b0a8	-0.043137223
138	0x3d674dc0	0.056470633
139	0xbdd0d0d1	-0.101960786
140	0xbca70d60	-0.02039212
141	0x3d270d48	0.04078415
142	0x3d7a9418	0.06117639
143	0xbdd0d0d0	-0.10196078
144	0x3c7426e0	0.014901847
145	0x3dd0d0d1	0.101960786
146	0x3ca70d90	0.02039221
147	0x3ca70d20	0.020392
148	0x3cfa9420	0.03058821
149	0xbda70d7c	-0.08156869
150	0x3d7a9418	0.06117639
151	0xbd270d78	-0.04078433
152	0xbda70d54	-0.08156839
153	0x3da70d6c	0.08156857
154	0x33000000	2.9802322e-08
155	0xbda70d74	-0.08156863
156	0xbd7a9428	-0.06117645
157	0xbd7a9438	-0.06117651
158	0xbd270d58	-0.04078421
159	0xbda70d74	-0.08156863
160	0xb4800000	-2.3841858e-07
161	0xbd270d68	-0.04078427
162	0x3dd0d0d1	0.101960786
163	0xbdd0d0d1	-0.101960786
164	0xbdd0d0d1	-0.101960786
165	0x3d270d80	0.04078436
166	0xbda70d70	-0.0815686
167	0xb4000000	-1.1920929e-07
168	0x3da70d70	0.0815686
169	0x3dd0d0c0	0.10196066
170	0x00000000	0.0
171	0xbbcd9900	-0.0062743425
172	0xbd0a23b8	-0.03372547
173	0x34400000	1.7881393e-07
174	0xbdd0d0d0	-0.10196078
175	0x3da70d5c	0.08156845
176	0xbda70d74	-0.08156863
177	0x3d742778	0.059607953
178	0x3ca70d20	0.020392
179	0xbdd0d0d0	-0.10196078
180	0xbda70d74	-0.08156863
181	0x3da70d6c	0.08156857
182	0xbca70d70	-0.02039215
183	0x3dd0d0d1	0.101960786
184	0x3dd0d0cc	0.10196075
185	0xbdd0d0d1	-0.101960786
186	0xbdd0d0cc	-0.10196075
187	0xbd20a0a8	-0.039215714
188	0x3dd0d0bc	0.10196063
189	0xbda70d74	-0.08156863
190	0x3d472d98	0.048627466
191	0x33000000	2.9802322e-08
192	0x3d270d60	0.04078424
193	0xbc4d9a80	-0.012549043
194	0x3dd0d0d1	0.101960786
195	0x00000000	0.0
196	0x34400000	1.7881393e-07
197	0x34400000	1.7881393e-07
198	0x3c008000	0.007843018
199	0xbdd0d0d1	-0.101960786
200	0x3dd0d0d0	0.10196078
201	0x3dd0d0d1	0.101960786
202	0xbdd0d0d1	-0.101960786
203	0xbda70d80	-0.08156872
204	0xbd8080a8	-0.06274539
205	0x3da70d70	0.0815686
206	0xbdd0d0d1	-0.101960786
207	0x3d270d60	0.04078424
208	0x3ca70d60	0.02039212
209	0xbd7a9430	-0.06117648
210	0x3acd9a00	0.0015686154
211	0x3da70d78	0.08156866
212	0x3dd0d0d1	0.101960786
213	0xbd270d78	-0.04078433
214	0x3dd0d0d1	0.101960786
215	0x3d7a93d8	0.06117615
216	0xbca70d70	-0.02039215
217	0xbdd0d0c4	-0.10196069
218	0xbca70db0	-0.020392269
219	0xbd008088	-0.031372577
220	0x33c00000	8.940697e-08
221	0xbca70d30	-0.02039203
222	0x3d270d58	0.04078421
223	0x3dd0d0cc	0.10196075
224	0x3d270d70	0.0407843
225	0xbda70d70	-0.0815686
226	0xbdd0d0d0	-0.10196078
227	0x3d270d70	0.0407843
228	0xbd270d50	-0.04078418
229	0x3cfa9480	0.030588388
230	0x3dd0d0d0	0.10196078
231	0x3d7a9450	0.061176598
232	0xbda70d90	-0.08156884
233	0xbd7a9420	-0.06117642
234	0xbdd0d0d1	-0.101960786
235	0xbd270da0	-0.04078448
236	0xbdd0d0d1	-0.101960786
237	0xbcedbb00	-0.029019833
238	0xbca70dc0	-0.020392299
239	0xbd7a9430	-0.06117648
240	0xb4000000	-1.1920929e-07
241	0x3ca70d40	0.02039206
242	0x3da70d70	0.0815686
243	0xbc4d9a80	-0.012549043
244	0xba4d9c00	-0.0007843375
245	0x3dd0d0d1	0.101960786
246	0x3dd0d0d1	0.101960786
247	0xbca70d90	-0.02039221
248	0xbd7a9428	-0.06117645
249	0x3d270d68	0.04078427
250	0xbd7a9438	-0.06117651
251	0x3dca6404	0.09882358
252	0x3d85522c	0.06509814
253	0xbd6a8428	-0.05725494
254	0x34900000	2.682209e-07
255	0x3dd0d0d1	0.101960786
