genUAPonQT/QAT/singleuqmodel/x_noisetr10000_w4a4_26.npy (npy, 12416 bytes, 1 tensors)

array f4 [1, 3, 32, 32]
0	0xba4d9800	-0.0007842779
1	0xbca70d80	-0.02039218
2	0xbd270d70	-0.0407843
3	0x3d33e720	0.04392159
4	0x3da57248	0.08078438
5	0xbc0d5a00	-0.008627415
6	0xbdd0d0c8	-0.10196072
7	0x3dca6400	0.09882355
8	0x3dd0d0d1	0.101960786
9	0xbd270d50	-0.04078418
10	0xbda70d70	-0.0815686
11	0x3d23d720	0.04000008
12	0x3d7a9440	0.06117654
13	0xbd4a6410	-0.049411833
14	0xbd3a5420	-0.045490384
15	0xbdd0d0d1	-0.101960786
16	0x33800000	5.9604645e-08
17	0xbd7dcaa0	-0.061960816
18	0xb3800000	-5.9604645e-08
19	0xbc4d9ac0	-0.012549102
20	0xbda70d68	-0.08156854
21	0xbdd0d0d1	-0.101960786
22	0x3ca70d80	0.02039218
23	0x3da70d88	0.08156878
24	0x3d674db0	0.056470573
25	0x3d775db0	0.06039208
26	0x3d270da0	0.04078448
27	0xbca70d00	-0.020391941
28	0x3c742780	0.014901996
29	0x3d7a9430	0.06117648
30	0x3d922bc8	0.07137257
31	0x3d3d8a50	0.046274483
32	0x3d7a9420	0.06117642
33	0x3daa43e0	0.083137274
34	0x3d855230	0.06509817
35	0xbd270d60	-0.04078424
36	0x3cc72d40	0.02431357
37	0xbdd0d0d1	-0.101960786
38	0xbd7a9420	-0.06117642
39	0x3dd0d0d1	0.101960786
40	0xbca70d80	-0.02039218
41	0xbd0a23a0	-0.03372538
42	0x3d8d5a30	0.069019675
43	0x3da70d70	0.0815686
44	0xbd270d80	-0.04078436
45	0x3d60e110	0.054902136
46	0xbd742780	-0.059607983
47	0xbda70d78	-0.08156866
48	0xbd06ed60	-0.032941222
49	0xbdcbff38	-0.099607885
50	0x3cc72da0	0.024313748
51	0x3d7a9420	0.06117642
52	0x00000000	0.0
53	0x3da23bd8	0.079215705
54	0x3cfa9420	0.03058821
55	0xbacd9a00	-0.0015686154
56	0xbacd9800	-0.0015685558
57	0xbd7a9450	-0.061176598
58	0xbd06ed60	-0.032941222
59	0x3d7a9450	0.061176598
60	0xbd270d60	-0.04078424
61	0x3ca70dc0	0.020392299
62	0xbd3d8a60	-0.046274543
63	0xbd7a9420	-0.06117642
64	0x3d270d60	0.04078424
65	0xbda70d70	-0.0815686
66	0xbd6a8430	-0.05725497
67	0x3c33e700	0.010980368
68	0xbca70da0	-0.02039224
69	0x3ca70e00	0.020392418
70	0x3dd0d0d1	0.101960786
71	0x3dd0d0c0	0.10196066
72	0x3d270d50	0.04078418
73	0x3b1a3200	0.0023528337
74	0x3dd0d0d0	0.10196078
75	0x3cda7400	0.026666641
76	0xbdd0d0d0	-0.10196078
77	0xbdd0d0d1	-0.101960786
78	0xbdd0d0d1	-0.101960786
79	0xbd270d70	-0.0407843
80	0xbc808060	-0.015686214
81	0x3cedba80	0.029019594
82	0x3da23bd8	0.079215705
83	0xbd270d70	-0.0407843
84	0xbdc72d88	-0.09725481
85	0x3d109090	0.035294116
86	0x3d270d50	0.04078418
87	0x3d0d5a20	0.034509778
88	0xbbb3e780	-0.0054902434
89	0x3d270d50	0.04078418
90	0xbdd0d0d1	-0.101960786
91	0xb4400000	-1.7881393e-07
92	0xbb9a3400	-0.004705906
93	0xbd270d60	-0.04078424
94	0xbc1a33c0	-0.009411752
95	0x3c742740	0.014901936
96	0x34400000	1.7881393e-07
97	0xbca70d60	-0.02039212
98	0xbd270d70	-0.0407843
99	0x3dd0d0d1	0.101960786
100	0xbc0d5980	-0.0086272955
101	0xbd5a7420	-0.0533334
102	0x3da70d60	0.08156848
103	0x3dd0d0d1	0.101960786
104	0xbda70d70	-0.0815686
105	0xbd7a9420	-0.06117642
106	0x3d60e0e0	0.054901958
107	0xbdd0d0d0	-0.10196078
108	0xbd270d90	-0.04078442
109	0x3da70d80	0.08156872
110	0x3da70d78	0.08156866
111	0x3dd0d0d1	0.101960786
112	0x3d7a9450	0.061176598
113	0x3ca70d80	0.02039218
114	0xbdd0d0d0	-0.10196078
115	0x3d270d70	0.0407843
116	0x3c9a33c0	0.018823504
117	0xbdd0d0d1	-0.101960786
118	0xbca70dc0	-0.020392299
119	0x3dd0d0d0	0.10196078
120	0xbca70da0	-0.02039224
121	0xbcd40760	-0.025882423
122	0xbdd0d0d1	-0.101960786
123	0x34400000	1.7881393e-07
124	0x3d13c700	0.036078453
125	0xbd3a5400	-0.045490265
126	0xbda70d70	-0.0815686
127	0x3dc25bf0	0.09490192
128	0x3ca70dc0	0.020392299
129	0xbdd0d0d0	-0.10196078
130	0x3da70d70	0.0815686
131	0x3db8b8b8	0.09019607
132	0x3d7a9430	0.06117648
133	0x3dd0d0d1	0.101960786
134	0x3d641740	0.055686235
135	0xbd270db0	-0.040784538
136	0xbda70d70	-0.0815686
137	0x3dd0d0d1	0.101960786
138	0x3ca70de0	0.020392358
139	0xbd270d70	-0.0407843
140	0xb3800000	-5.9604645e-08
141	0x3ca70d60	0.02039212
142	0x3d30b0b0	0.043137252
143	0xbda70d70	-0.0815686
144	0x3d60e0f0	0.054902017
145	0x3ca70cc0	0.020391822
146	0xbc4d9ac0	-0.012549102
147	0xbd1a33d8	-0.0376471
148	0x3dba53f0	0.09098041
149	0x3da70d70	0.0815686
150	0xbca70d40	-0.02039206
151	0x3b808080	0.0039215684
152	0x3d922bc8	0.07137257
153	0xbd5a73c0	-0.053333044
154	0x3b808100	0.003921628
155	0xbdd0d0d0	-0.10196078
156	0xbdd0d0d1	-0.101960786
157	0x3d270d30	0.04078406
158	0xbd7a9420	-0.06117642
159	0xbdd0d0d1	-0.101960786
160	0x3d270d60	0.04078424
161	0x3d270d60	0.04078424
162	0x3ca70da0	0.02039224
163	0x3c40c0c0	0.011764705
164	0x3dd0d0d1	0.101960786
165	0x3ca70d80	0.02039218
166	0xbd6a8410	-0.05725485
167	0xbca70d80	-0.02039218
168	0x3d270d40	0.04078412
169	0xbda70d70	-0.0815686
170	0xbdd0d0d0	-0.10196078
171	0xbb9a3480	-0.0047059655
172	0xb4e00000	-4.172325e-07
173	0x3d7a9430	0.06117648
174	0x3c9a33a0	0.018823445
175	0xbd7a9420	-0.06117642
176	0x3dd0d0d1	0.101960786
177	0x00000000	0.0
178	0xbca70dc0	-0.020392299
179	0x3dd0d0d1	0.101960786
180	0xbdd0d0d1	-0.101960786
181	0x3dd0d0d0	0.10196078
182	0x3dd0d0d0	0.10196078
183	0xbd7a9428	-0.06117645
184	0x34000000	1.1920929e-07
185	0x3d371d70	0.04470581
186	0xbca70da0	-0.02039224
187	0x3d1090a0	0.035294175
188	0xbd7a9420	-0.06117642
189	0x3d43f730	0.04784316
190	0xbda70d70	-0.0815686
191	0xbca70d40	-0.02039206
192	0xbdd0d0d1	-0.101960786
193	0x3d3a53e0	0.045490146
194	0x3da70d70	0.0815686
195	0x3dd0d0d0	0.10196078
196	0xbca70d40	-0.02039206
197	0xbdd0d0d0	-0.10196078
198	0x3da70d78	0.08156866
199	0x3d50d0f0	0.05098051
200	0xbdd0d0d1	-0.101960786
201	0x3d7a9420	0.06117642
202	0x3d4d9a70	0.05019611
203	0x3da70d78	0.08156866
204	0x3dd0d0d1	0.101960786
205	0x3d7a9430	0.06117648
206	0xb4400000	-1.7881393e-07
207	0xbda70d70	-0.0815686
208	0xbd270d60	-0.04078424
209	0xbc674d80	-0.0141175985
210	0x3da70d70	0.0815686
211	0xbda70d70	-0.0815686
212	0x3d60e0d0	0.054901898
213	0xbd270d40	-0.04078412
214	0x3d270d70	0.0407843
215	0xbd9f0560	-0.07764697
216	0xbda70d70	-0.0815686
217	0x3dd0d0c8	0.10196072
218	0xbdd0d0d1	-0.101960786
219	0xbd1a33c0	-0.03764701
220	0xbda70d70	-0.0815686
221	0x3d16fd80	0.03686285
222	0xbdd0d0d1	-0.101960786
223	0x3d922bc8	0.07137257
224	0x3d371da0	0.044705987
225	0x3d270d70	0.0407843
226	0x3d9f0580	0.07764721
227	0x3da70d70	0.0815686
228	0xbda70d70	-0.0815686
229	0xbc742780	-0.014901996
230	0x3da70d70	0.0815686
231	0xbdd0d0d1	-0.101960786
232	0x34000000	1.1920929e-07
233	0xbd7a9430	-0.06117648
234	0xbda70d6c	-0.08156857
235	0xbb807f80	-0.003921449
236	0x3d33e720	0.04392159
237	0xba4d9c00	-0.0007843375
238	0xbd7a9420	-0.06117642
239	0x3d93c710	0.072157025
240	0x3ca70da0	0.02039224
241	0xbca70da0	-0.02039224
242	0x3da70d78	0.08156866
243	0x3ca70d60	0.02039212
244	0xbda70d88	-0.08156878
245	0xbd7a9430	-0.06117648
246	0x3ca70d60	0.02039212
247	0x3c270d60	0.01019606
248	0xbd270d78	-0.04078433
249	0xbcedba80	-0.029019594
250	0x00000000	0.0
251	0x3ca70d80	0.02039218
252	0xbdd0d0d1	-0.101960786
253	0xbda70d70	-0.0815686
254	0x3d7a9430	0.06117648
255	0xbd8ef560	-0.06980395
