defensePtqEval/UAPs/ptq_single/x_noisetr10000_w2a2_32.npy (npy, 12416 bytes, 1 tensors)

array f4 [1, 32, 32, 3]
0	0xbe008081	-0.1254902
1	0xbe008081	-0.1254902
2	0xbdcd9a68	-0.10039216
3	0xbe008081	-0.1254902
4	0xbc93c6e0	-0.018039167
5	0xbdcd9a68	-0.10039216
6	0x3d4d9a30	0.050195873
7	0xb4e00000	-4.172325e-07
8	0x3ccd9a40	0.025097966
9	0xbe008081	-0.1254902
10	0xbd6a8430	-0.05725497
11	0xbd4d9a70	-0.05019611
12	0x3d06ed38	0.032941073
13	0x3ccd9a20	0.025097907
14	0xbccd9a60	-0.025098026
15	0xbccd9a60	-0.025098026
16	0xbd4d9a70	-0.05019611
17	0x3d270d60	0.04078424
18	0xbd9a33d0	-0.07529414
19	0xbd9a33c8	-0.07529408
20	0xbd9a33d0	-0.07529414
21	0xbde41740	-0.11137247
22	0xbe008081	-0.1254902
23	0xbe008081	-0.1254902
24	0x3d9a33b8	0.07529396
25	0x3d4d9a70	0.05019611
26	0x3d109090	0.035294116
27	0xbe008080	-0.12549019
28	0xbe008080	-0.12549019
29	0xbccd9a60	-0.025098026
30	0xbc0d5b80	-0.008627772
31	0xbb4d9d00	-0.0031374097
32	0x3d008080	0.031372547
33	0xbccd9a40	-0.025097966
34	0xb3800000	-5.9604645e-08
35	0x3d4d9a70	0.05019611
36	0xb4000000	-1.1920929e-07
37	0x3d008080	0.031372547
38	0x3dabdef0	0.08392131
39	0xbdcd9a60	-0.1003921
40	0xbcba53e0	-0.022745073
41	0xbcba53e0	-0.022745073
42	0xbcba53e0	-0.022745073
43	0x3d0d5a30	0.034509838
44	0x3d9a33c0	0.07529402
45	0xbcba53e0	-0.022745073
46	0xbe008081	-0.1254902
47	0xbd4d9a70	-0.05019611
48	0x3dcd9a58	0.10039204
49	0x3d8ef558	0.06980389
50	0x3d888878	0.06666654
51	0xbd4d9a70	-0.05019611
52	0x3ccd9a40	0.025097966
53	0xbe008081	-0.1254902
54	0x3d9f0568	0.07764703
55	0x3e008081	0.1254902
56	0xbc8d5a20	-0.017254889
57	0xbe008081	-0.1254902
58	0xbe008081	-0.1254902
59	0xbe008080	-0.12549019
60	0xbd8d5a40	-0.069019794
61	0xbdcd9a68	-0.10039216
62	0x3b808080	0.0039215684
63	0xbdcd9a60	-0.1003921
64	0xbe008081	-0.1254902
65	0xbd9a33c8	-0.07529408
66	0x3d9a33c0	0.07529402
67	0xbc33e700	-0.010980368
68	0xbcfa9400	-0.03058815
69	0xbbb3ea80	-0.005490601
70	0x3ccd9a40	0.025097966
71	0xbc33e700	-0.010980368
72	0xbd9a33d0	-0.07529414
73	0xbe008081	-0.1254902
74	0xbd9a33d0	-0.07529414
75	0x3daa43d8	0.083137214
76	0x3daa43d8	0.083137214
77	0x3d20a080	0.039215565
78	0xbccd9a80	-0.025098085
79	0xbce0e100	-0.027451038
80	0x00000000	0.0
81	0xbd9a33d0	-0.07529414
82	0x3db71d78	0.089411676
83	0xbc33e780	-0.010980487
84	0xbbe74d80	-0.0070587993
85	0xbe008081	-0.1254902
86	0xbe008081	-0.1254902
87	0xbd8a23b8	-0.06745094
88	0xbdcd9a68	-0.10039216
89	0x3d4d9a10	0.050195754
90	0xbc8d5a20	-0.017254889
91	0xbdcd9a68	-0.10039216
92	0x3c742740	0.014901936
93	0xb4400000	-1.7881393e-07
94	0x3d4d9a50	0.050195992
95	0x3dbf2568	0.093333066
96	0xbdcd9a66	-0.10039215
97	0x3dcf359c	0.10117647
98	0xbccd9a80	-0.025098085
99	0x3d50d0d0	0.05098039
100	0xbd742750	-0.059607804
101	0xbcad7a40	-0.021176457
102	0x3da3d708	0.07999998
103	0xbd9a33d0	-0.07529414
104	0x3c86ed00	0.016470432
105	0x3d30b0b0	0.043137252
106	0xbccd9a60	-0.025098026
107	0xbdcd9a68	-0.10039216
108	0xbdcd9a68	-0.10039216
109	0xbccd9a70	-0.025098056
110	0xbd8d5a28	-0.069019616
111	0xbd7dcaa0	-0.061960816
112	0xbd6dba80	-0.05803919
113	0xbc9a33e0	-0.018823564
114	0xbd9a33cc	-0.07529411
115	0xbda57240	-0.08078432
116	0xbe008080	-0.12549019
117	0xbccd9a70	-0.025098056
118	0xb3800000	-5.9604645e-08
119	0xbe008080	-0.12549019
120	0x3d4d9a50	0.050195992
121	0xbd922bc0	-0.07137251
122	0xbdc59258	-0.096470535
123	0xbd9a33cc	-0.07529411
124	0xbd9a33d4	-0.07529417
125	0xbdcd9a68	-0.10039216
126	0x3d4d9a08	0.050195724
127	0xbccd9a40	-0.025097966
128	0xb4000000	-1.1920929e-07
129	0xbdcd9a64	-0.10039213
130	0xbe008081	-0.1254902
131	0xbdc0c0b8	-0.09411758
132	0xbcad7a70	-0.021176547
133	0xbd742750	-0.059607804
134	0xbd4d9a70	-0.05019611
135	0xbe008080	-0.12549019
136	0xbdcd9a68	-0.10039216
137	0x3c008080	0.007843137
138	0xbcedbab0	-0.029019684
139	0x3e008080	0.12549019
140	0x3e00807c	0.12549013
141	0xbe00807e	-0.12549016
142	0xbe008081	-0.1254902
143	0xbe008081	-0.1254902
144	0xb3c00000	-8.940697e-08
145	0x3d371d80	0.044705868
146	0xbc8d5a20	-0.017254889
147	0xbdbd8a5c	-0.092549056
148	0xbccd9a60	-0.025098026
149	0xbd9a33d0	-0.07529414
150	0xbdfa9438	-0.12235302
151	0xbccd9a80	-0.025098085
152	0x00000000	0.0
153	0xbd70f0e0	-0.058823466
154	0xbe008081	-0.1254902
155	0xbe008081	-0.1254902
156	0x3ccd9a80	0.025098085
157	0xbdcd9a68	-0.10039216
158	0xbdcd9a68	-0.10039216
159	0x3d008080	0.031372547
160	0xbd9a33d0	-0.07529414
161	0xb4000000	-1.1920929e-07
162	0x3d4d9a40	0.050195932
163	0x3d50d0a0	0.05098021
164	0xbcad7a40	-0.021176457
165	0xbe008080	-0.12549019
166	0xbd4d9a60	-0.05019605
167	0xbdcd9a68	-0.10039216
168	0x3ccd9a40	0.025097966
169	0xbd742750	-0.059607804
170	0xbe008081	-0.1254902
171	0x3ccd9a60	0.025098026
172	0xbd821bb0	-0.06352937
173	0x3d008080	0.031372547
174	0xbe008081	-0.1254902
175	0xbccd9ae0	-0.025098264
176	0xbcad7a40	-0.021176457
177	0xbccd9a80	-0.025098085
178	0xb3800000	-5.9604645e-08
179	0xbd4d9a70	-0.05019611
180	0x00000000	0.0
181	0xbd9a33d0	-0.07529414
182	0xbdcd9a68	-0.10039216
183	0x3dcd9a48	0.100391924
184	0xbc8d5a20	-0.017254889
185	0xbd4d9a60	-0.05019605
186	0xbdcd9a68	-0.10039216
187	0xbe008081	-0.1254902
188	0xbdcd9a68	-0.10039216
189	0xbd855228	-0.06509811
190	0x3d5daa80	0.05411768
191	0x3d008060	0.031372428
192	0x3d4d9a60	0.05019605
193	0x3def55bc	0.116862744
194	0x3db3e6f0	0.08784282
195	0xbd2d7a48	-0.042352945
196	0xbdcd9a64	-0.10039213
197	0xbd9a33d8	-0.0752942
198	0x3def55bc	0.116862744
199	0xbd4d9a90	-0.05019623
200	0xbd4d9a70	-0.05019611
201	0xbd85521c	-0.06509802
202	0xbe008081	-0.1254902
203	0xbd922bc8	-0.07137257
204	0xbe008081	-0.1254902
205	0x3cedba70	0.029019564
206	0xbccd9a60	-0.025098026
207	0xbd4d9a68	-0.05019608
208	0x3cedba80	0.029019594
209	0x3d06ed50	0.032941163
210	0xbd4d9a68	-0.05019608
211	0x00000000	0.0
212	0xbd4d9a90	-0.05019623
213	0x3d4d9a50	0.050195992
214	0xbd4d9a78	-0.05019614
215	0xbd9a33d0	-0.07529414
216	0x3daf1578	0.08549017
217	0xbd109080	-0.035294056
218	0xbde8e8e0	-0.113725424
219	0x3da70d70	0.0815686
220	0xbe00807b	-0.12549011
221	0xbe008081	-0.1254902
222	0x3d4d9a20	0.050195813
223	0x3dcd9a44	0.100391895
224	0x3d008070	0.031372488
225	0x3ccd9a30	0.025097936
226	0x3d4d9a50	0.050195992
227	0xbd4d9a70	-0.05019611
228	0x3dcd9a5c	0.10039207
229	0x3d4d9a58	0.05019602
230	0xbc9a33a0	-0.018823445
231	0xbd4d9a78	-0.05019614
232	0x3d0d5a08	0.03450969
233	0xbd4d9a70	-0.05019611
234	0xbc8d5a30	-0.017254919
235	0x3daf157c	0.0854902
236	0xb5100000	-5.364418e-07
237	0xbd30b0b8	-0.043137282
238	0xbd9a33cc	-0.07529411
239	0xbd9a33d0	-0.07529414
240	0x3daf157c	0.0854902
241	0xbd4d9a70	-0.05019611
242	0xbd9a33d0	-0.07529414
243	0xbe008080	-0.12549019
244	0xbd9a33d0	-0.07529414
245	0xbd4d9a70	-0.05019611
246	0xbe008081	-0.1254902
247	0x3d4d9a38	0.050195903
248	0x3d109090	0.035294116
249	0x3ccd9a40	0.025097966
250	0xbdcd9a64	-0.10039213
251	0xbd9a33d0	-0.07529414
252	0x3d86ed2c	0.06588206
253	0xbd4d9a58	-0.05019602
254	0xbd9a33d8	-0.0752942
255	0xbd4d9a68	-0.05019608
