defensePtqEval/UAPs/ptq_single/x_noisetr10000_w4a4_26.npy (npy, 12416 bytes, 1 tensors)

array f4 [1, 32, 32, 3]
000000 40 94 7a bd 80 0d a7 bc 70 0d 27 bd d1 d0 d0 bd
       -0.06117654 -0.02039218 -0.0407843 -0.101960786
000010 c0 0d 27 bd 40 5a 0d bc 5a 0d 27 bd 5c 0d 27 bd
       -0.040784597 -0.008627474 -0.040784217 -0.040784225
000020 34 62 95 3d 54 82 b5 3d 9c b0 30 3d ac 23 8a 3d
       0.072941214 0.08862749 0.043137178 0.06745085
000030 74 0d a7 bd d1 d0 d0 bd d1 d0 d0 bd d1 d0 50 bd
       -0.08156863 -0.101960786 -0.101960786 -0.050980393
000040 58 74 da bc 48 94 7a bd d1 d0 50 bd 00 00 e0 33
       -0.026666805 -0.06117657 -0.050980393 1.0430813e-07
000050 48 17 64 3d d1 d0 50 bd 68 0d a7 3c e8 43 2a bd
       0.055686265 -0.050980393 0.020392135 -0.041568667
000060 00 00 14 34 d1 d0 d0 bd 18 94 7a bd 39 0d 27 3d
       1.3783574e-07 -0.101960786 -0.06117639 0.040784094
000070 62 0d a7 3d 80 9c 4d bb 76 0d 27 bd 76 9a 4d bd
       0.081568494 -0.00313738 -0.04078432 -0.050196134
000080 cc d0 d0 bd 75 0d 27 3d 3e 6a 9d 3d f8 b6 03 3d
       -0.10196075 0.040784318 0.0768628 0.032156914
000090 74 0d a7 bd cd d0 d0 bd 50 0d a7 bc 00 00 30 b3
       -0.08156863 -0.101960756 -0.02039209 -4.0978193e-08
0000a0 e0 33 9a bb 00 00 20 b4 c5 d0 50 3d 00 00 40 b3
       -0.004705891 -1.4901161e-07 0.05098035 -4.4703484e-08
0000b0 20 5a 0d bc 74 0d a7 bd d1 d0 d0 bd 74 0d a7 bd
       -0.0086274445 -0.08156863 -0.101960786 -0.08156863
0000c0 f9 c6 13 3d e8 53 ba 3c f8 c6 13 3d 74 0d a7 bd
       0.036078427 0.022745088 0.036078423 -0.08156863
0000d0 ca ca 7d bd 7c 0d a7 bd 36 0d a7 3c d1 d0 d0 3d
       -0.061960973 -0.08156869 0.020392042 0.101960786
0000e0 c0 33 9a bb c1 c0 40 bd 30 5a 0d bc 58 0d 27 bd
       -0.004705876 -0.047058824 -0.008627459 -0.04078421
0000f0 54 0d a7 bc a0 33 9a bb 10 2e c7 bc 96 a0 a0 3c
       -0.020392098 -0.004705861 -0.024313956 0.019607823
000100 ec b6 03 3d c4 1b 82 3d 73 0d a7 bd d1 d0 d0 bd
       0.03215687 0.06352952 -0.08156862 -0.101960786
000110 d1 d0 d0 bd 26 94 7a bd 75 0d a7 bd 88 0d 27 bd
       -0.101960786 -0.06117644 -0.081568636 -0.04078439
000120 cc d0 d0 3d 5c 0d 27 3d 10 94 fa 3c 6f 0d a7 bd
       0.10196075 0.040784225 0.03058818 -0.08156859
000130 74 0d a7 bd 5c ed 86 bd 28 5a 0d bc 00 00 80 32
       -0.08156863 -0.065882415 -0.008627452 1.4901161e-08
000140 48 ed 06 bd 34 0d a7 bc ac a0 20 3d d8 b6 03 bd
       -0.032941133 -0.020392038 0.03921573 -0.032156795
000150 2e 94 7a bd d1 d0 d0 bd d1 d0 d0 bd 1e 94 7a bd
       -0.06117647 -0.101960786 -0.101960786 -0.06117641
000160 5c 0d 27 3d 78 0d 27 bd f1 f0 70 bd fc c6 13 3d
       0.040784225 -0.04078433 -0.05882353 0.03607844
000170 68 fd 16 bd 74 0d a7 bd 74 0d a7 bd 76 0d a7 bd
       -0.03686276 -0.08156863 -0.08156863 -0.08156864
000180 80 0d 27 bd 80 0d a7 3c 80 0d a7 3c 00 00 88 b4
       -0.04078436 0.02039218 0.02039218 -2.5331974e-07
000190 70 0d a7 bc d1 d0 d0 bd 00 00 18 34 58 0d a7 bc
       -0.02039215 -0.101960786 1.4156103e-07 -0.020392105
0001a0 e0 4d 67 bc 34 c7 93 3c ce d0 d0 3d f8 e0 60 bd
       -0.014117688 0.018039323 0.10196076 -0.054902047
0001b0 89 90 10 3d 8c 0d 27 3d b4 b8 b8 bd 69 1d 37 3d
       0.03529409 0.040784404 -0.09019604 0.044705782
0001c0 d1 d0 d0 3d d8 53 3a bd 73 0d a7 bd 6d 0d a7 bd
       0.101960786 -0.045490116 -0.08156862 -0.08156858
0001d0 98 90 10 bd 66 fd 16 bd 3c 7a 2d 3d 00 97 cd 3a
       -0.035294145 -0.036862753 0.0423529 0.001568526
0001e0 66 0d 27 bd 6b 05 9f bd 78 0d 27 3d 94 80 00 3c
       -0.040784262 -0.07764705 0.04078433 0.007843155
0001f0 34 7a 2d 3d b0 27 74 bc c1 c0 40 bd cc 0d a7 bc
       0.04235287 -0.01490204 -0.047058824 -0.020392321
000200 1c 84 6a bd 66 0d 27 bd 74 0d a7 bd 08 b7 03 bd
       -0.057254896 -0.040784262 -0.08156863 -0.032156974
000210 fc ce 9b 3d a4 a0 20 3d 90 0d a7 3c 54 ed 86 bc
       0.076078385 0.0392157 0.02039221 -0.016470589
000220 58 ed 86 bc 74 0d a7 bd 96 0d 27 bd 00 00 50 b4
       -0.016470596 -0.08156863 -0.04078444 -1.937151e-07
000230 58 8a 3d 3d f9 c6 13 3d 1a 94 7a bd 50 0d a7 bc
       0.046274513 0.036078427 -0.061176397 -0.02039209
000240 58 33 9a bb 7e 0d a7 3d 4c 0d a7 3d 00 00 d0 33
       -0.0047058277 0.0815687 0.08156833 9.685755e-08
000250 66 0d 27 bd 8c 0d a7 bd e9 93 7a 3d 62 0d a7 3d
       -0.040784262 -0.08156881 0.061176214 0.081568494
000260 f8 4d e7 bc 74 0d a7 bd d1 d0 d0 bd c4 d0 d0 bd
       -0.02823542 -0.08156863 -0.101960786 -0.10196069
000270 89 88 88 bd e8 33 9a 3c 6c 0d a7 3d d9 4d 67 3d
       -0.06666667 0.018823579 0.08156857 0.056470726
000280 d1 d0 d0 3d f8 93 7a 3d 39 94 7a 3d 98 2d c7 3c
       0.101960786 0.06117627 0.061176512 0.024313733
000290 6c 0d a7 3d d4 ed 86 3c 78 2d c7 3c d1 d0 d0 bd
       0.08156857 0.016470827 0.024313673 -0.101960786
0002a0 26 94 7a bd d1 d0 d0 bd 74 0d a7 bd d1 d0 d0 3d
       -0.06117644 -0.101960786 -0.08156863 0.101960786
0002b0 d1 d0 d0 3d 50 0d a7 3c 74 0d a7 bc 00 00 88 b4
       0.101960786 0.02039209 -0.020392157 -2.5331974e-07
0002c0 e4 c6 93 bd 76 0d 27 bd 46 94 7a bd d1 d0 d0 bd
       -0.0721567 -0.04078432 -0.06117656 -0.101960786
0002d0 46 ed 06 bd d1 d0 d0 bd d1 d0 d0 bd bc 33 9a 3d
       -0.032941125 -0.101960786 -0.101960786 0.07529399
0002e0 88 0d a7 3c 90 0d a7 3c 73 0d a7 bd 1a 84 6a bd
       0.020392194 0.02039221 -0.08156862 -0.057254888
0002f0 88 2d c7 3c 14 5a 8d bc fb c6 93 3d c4 ca 7d 3d
       0.024313703 -0.017254867 0.07215687 0.06196095
000300 6c 0d a7 bd 78 9a 4d bd d1 d0 d0 bd 16 94 7a bd
       -0.08156857 -0.05019614 -0.101960786 -0.061176382
000310 aa b0 30 bd d1 d0 d0 bd 5a 0d 27 bd 8e 0d a7 3d
       -0.04313723 -0.101960786 -0.040784217 0.08156882
000320 d1 d0 d0 bd c1 c0 40 bd ce d0 d0 3d 00 00 00 b3
       -0.101960786 -0.047058824 0.10196076 -2.9802322e-08
000330 e1 e0 60 bd 3c 94 7a 3d 00 00 00 33 6a 8a 3d bd
       -0.05490196 0.061176524 2.9802322e-08 -0.04627458
000340 00 00 30 b4 7c 0d 27 bd a1 a0 20 bd cd d0 d0 bd
       -1.6391277e-07 -0.040784344 -0.039215688 -0.101960756
000350 ce d0 d0 bd 00 00 20 33 00 00 70 b4 4c 6a 1d bd
       -0.10196076 3.7252903e-08 -2.2351742e-07 -0.03843145
000360 26 94 7a bd cd d0 d0 bd ce d0 d0 bd 00 00 18 34
       -0.06117644 -0.101960756 -0.10196076 1.4156103e-07
000370 0a c7 13 bd ce d0 d0 bd 00 00 28 b4 b4 a0 20 3d
       -0.03607849 -0.10196076 -1.5646219e-07 0.03921576
000380 78 0d a7 bc 74 0d a7 bd 85 0d a7 bd d1 d0 d0 bd
       -0.020392165 -0.08156863 -0.081568755 -0.101960786
000390 d5 3b a2 3d 5a 94 7a bd 38 6a 1d 3d 00 00 c0 b2
       0.07921568 -0.061176635 0.038431376 -2.2351742e-08
0003a0 10 34 1a bc b4 d0 d0 3d 74 0d a7 bd 84 0d 27 bd
       -0.009411827 0.10196057 -0.08156863 -0.040784374
0003b0 cc d0 d0 bd b4 0d a7 bc 00 00 e0 b3 68 8a 3d 3d
       -0.10196075 -0.020392276 -1.0430813e-07 0.046274573
0003c0 2c 0d a7 bc fc 93 7a 3d d1 d0 d0 3d cc 3b a2 3d
       -0.020392023 0.061176285 0.101960786 0.079215616
0003d0 00 00 80 b2 68 0d a7 3c 49 6a 1d 3d 1a 94 7a bd
       -1.4901161e-08 0.020392135 0.03843144 -0.061176397
0003e0 bc 0d 27 bd 00 00 c0 b2 54 0d 27 3d 24 94 7a 3d
       -0.040784582 -2.2351742e-08 0.040784195 0.061176434
0003f0 b1 b0 30 bd 9a a0 20 bd 00 00 c0 b3 14 e7 b3 bc
       -0.043137256 -0.03921566 -8.940697e-08 -0.021960773
