defensePtqEval/UAPs/ptq_single/x_noisetr10000_w3a3_26.npy (npy, 12416 bytes, 1 tensors)

array f4 [1, 32, 32, 3]
-0.020392194 0.028235316 0.08156857 -0.061176397 -0.004705906 -0.04078427 -0.020392165 -0.10196075
-0.101960786 0.020392075 0.049411774 0.053333253 -0.04156877 -0.04078436 -0.004705876 -0.101960756
0.04078424 0.02039209 0.021176443 0.10196078 -0.08156863 -0.015686378 -0.004705906 0.02039209
-0.02039221 -0.0815686 -0.10196075 0.02039209 0.06117642 0.02745089 -0.081568465 -0.08156881
-0.03372577 -0.061176866 -0.101960786 0.031372666 0.020392418 -0.10196078 0.002352953 0.06117642
0.04078412 0.04078424 -0.08156864 -0.08156857 -0.004705876 -0.040784374 0.02039218 0.08156857
-0.020392075 -0.08156863 -0.101960786 0.007058829 -0.06117657 0.10196075 -0.02039215 0.0815686
0.06117645 -0.101960786 -0.06117642 0.06117627 0.04078427 0.06117642 -0.004705876 -0.101960786
0.061176777 -0.10196075 -0.03607841 0.08156872 0.04078421 0.045490324 0.10196078 0.0407843
-0.08156863 -0.041568756 -0.02039206 -0.04078427 -0.010980606 0.04078427 -0.04078421 -0.08156845
-0.0070586503 0.06117642 -0.020392358 -0.02745086 -0.06117642 5.9604645e-08 -0.0407843 -0.016470492
0.06117654 -0.04078418 -0.101960786 0.0070587993 0.016470492 0.10196072 0.06117648 0.08156866
-0.101960786 0.04078424 -8.940697e-08 1.4901161e-08 0.04078424 -8.940697e-08 0.010980353 -0.06117645
2.9802322e-08 0.10196075 -0.0815686 -0.08156863 0.07764706 1.1920929e-07 -0.0784314 -0.061176434
-0.04078436 2.9802322e-08 -0.040784463 2.9802322e-08 0.02039209 0.04078433 0.001568675 2.9802322e-08
0.04078445 0.08156884 0.06117654 -2.682209e-07 0.02039218 -0.02039215 -0.040784225 -0.101960786
-0.05411759 0.0094117075 0.02039218 -0.02039215 0.04078427 0.06117642 0.04078427 0.02039218
-0.02039218 0.04078436 -0.10196075 -0.101960786 -0.02039221 -0.020392075 -0.08156857 -0.061176687
0.029803976 -0.016470581 -2.9802322e-08 -0.101960756 -0.08156857 -0.020392165 0.04078439 0.02039215
0.10196075 -0.101960786 -0.06117654 -0.101960786 -0.06117645 -0.0815686 -0.005490154 0.081568554
0.10196078 0.10196069 -0.101960786 1.1920929e-07 -0.06117651 -0.101960786 0.06117642 0.02039212
-0.08156863 0.06117654 -0.02039206 0.08156851 0.04078418 -0.04078427 0.0611763 -0.02039212
2.3841858e-07 0.020392 -0.061176598 -0.04078424 -0.101960786 0.0047057867 -0.101960786 0.02039206
0.083137274 -0.02039218 -0.0815686 0.06117636 0.0 0.02039212 -0.06117642 0.06117654
-0.020392165 0.0 -0.04078421 0.020392165 0.020392299 -0.03372547 0.040784255 0.02039215
0.02039215 0.042352945 -0.0815686 -0.101960786 0.06117645 -0.04078424 -0.08156857 -0.04078433
0.02039206 -0.012549013 -0.06117645 -0.020392299 0.02039197 -2.682209e-07 0.04078412 0.028235316
-0.06117651 -0.06117642 -0.02039212 0.06117645 0.02039206 0.02039206 -0.08156863 -0.061176658
-0.08156857 0.020392165 0.10196075 0.06117651 -0.101960786 -0.06117651 -0.020392463 -0.018823534
3.5762787e-07 -0.029019684 0.04078424 0.06117642 -0.020392 -0.012549013 0.06117642 -0.101960786
-0.06274512 0.0 -0.020392388 -0.040784262 -0.026666611 -0.03843139 -0.012549013 -0.04078439
0.06509802 0.06117648 0.0815686 0.039215773 0.020392016 -0.04078433 2.9802322e-08 -0.008627459
00000000: 880d a7bc c04d e73c 6c0d a73d 1a94 7abd
00000010: 0034 9abb 680d 27bd 780d a7bc ccd0 d0bd
00000020: d1d0 d0bd 480d a73c 0064 4a3d f873 5a3d
00000030: 0444 2abd 800d 27bd c033 9abb cdd0 d0bd
00000040: 600d 273d 500d a73c 387a ad3c d0d0 d03d
00000050: 740d a7bd b880 80bc 0034 9abb 500d a73c
00000060: 900d a7bc 700d a7bd ccd0 d0bd 500d a73c
00000070: 2094 7a3d b0e0 e03c 5e0d a7bd 8c0d a7bd
00000080: 0824 0abd 9894 7abd d1d0 d0bd a080 003d
00000090: 000e a73c d0d0 d0bd 0034 1a3b 2094 7a3d
000000a0: 400d 273d 600d 273d 760d a7bd 6c0d a7bd
000000b0: c033 9abb 840d 27bd 800d a73c 6c0d a73d
000000c0: 480d a7bc 740d a7bd d1d0 d0bd c04d e73b
000000d0: 4894 7abd ccd0 d03d 700d a7bc 700d a73d
000000e0: 2894 7a3d d1d0 d0bd 2094 7abd f893 7a3d
000000f0: 680d 273d 2094 7a3d c033 9abb d1d0 d0bd
00000100: 8094 7a3d ccd0 d0bd f4c6 13bd 800d a73d
00000110: 580d 273d 1054 3a3d d0d0 d03d 700d 273d
00000120: 740d a7bd 0044 2abd 400d a7bc 680d 27bd
00000130: 00e8 33bc 680d 273d 580d 27bd 5c0d a7bd
00000140: 404c e7bb 2094 7a3d e00d a7bc a0e0 e0bc
00000150: 2094 7abd 0000 8033 700d 27bd 20ed 86bc
00000160: 4094 7a3d 500d 27bd d1d0 d0bd 804d e73b
00000170: 20ed 863c c8d0 d03d 3094 7a3d 780d a73d
00000180: d1d0 d0bd 600d 273d 0000 c0b3 0000 8032
00000190: 600d 273d 0000 c0b3 f0e6 333c 2894 7abd
000001a0: 0000 0033 ccd0 d03d 700d a7bd 740d a7bd
000001b0: 6c05 9f3d 0000 0034 a4a0 a0bd 2494 7abd
000001c0: 800d 27bd 0000 0033 9c0d 27bd 0000 0033
000001d0: 500d a73c 780d 273d 009c cd3a 0000 0033
000001e0: 980d 273d 900d a73d 4094 7a3d 0000 90b4
000001f0: 800d a73c 700d a7bc 5c0d 27bd d1d0 d0bd
00000200: 68aa 5dbd 9033 1a3c 800d a73c 700d a7bc
00000210: 680d 273d 2094 7a3d 680d 273d 800d a73c
00000220: 800d a7bc 800d 273d ccd0 d0bd d1d0 d0bd
00000230: 900d a7bc 480d a7bc 6c0d a7bd 6894 7abd
00000240: 7827 f43c 50ed 86bc 0000 00b3 cdd0 d0bd
00000250: 6c0d a7bd 780d a7bc 880d 273d 700d a73c
00000260: ccd0 d03d d1d0 d0bd 4094 7abd d1d0 d0bd
00000270: 2894 7abd 700d a7bd c0e6 b3bb 6a0d a73d
00000280: d0d0 d03d c4d0 d03d d1d0 d0bd 0000 0034
00000290: 3894 7abd d1d0 d0bd 2094 7a3d 600d a73c
000002a0: 740d a7bd 4094 7a3d 400d a7bc 640d a73d
000002b0: 500d 273d 680d 27bd 0094 7a3d 600d a7bc
000002c0: 0000 8034 200d a73c 5094 7abd 600d 27bd
000002d0: d1d0 d0bd 0033 9a3b d1d0 d0bd 400d a73c
000002e0: e043 aa3d 800d a7bc 700d a7bd 1094 7a3d
000002f0: 0000 0000 600d a73c 2094 7abd 4094 7a3d
00000300: 780d a7bc 0000 0000 580d 27bd 780d a73c
00000310: c00d a73c b823 0abd 640d 273d 700d a73c
00000320: 700d a73c 487a 2d3d 700d a7bd d1d0 d0bd
00000330: 2894 7a3d 600d 27bd 6c0d a7bd 780d 27bd
00000340: 400d a73c 609a 4dbc 2894 7abd c00d a7bc
00000350: 100d a73c 0000 90b4 400d 273d c04d e73c
00000360: 3894 7abd 2094 7abd 600d a7bc 2894 7a3d
00000370: 400d a73c 400d a73c 740d a7bd 6094 7abd
00000380: 6c0d a7bd 780d a73c ccd0 d03d 3894 7a3d
00000390: d1d0 d0bd 3894 7abd 180e a7bc d033 9abc
000003a0: 0000 c034 b0ba edbc 600d 273d 2094 7a3d
000003b0: 200d a7bc 609a 4dbc 2094 7a3d d1d0 d0bd
000003c0: 8380 80bd 0000 0000 f00d a7bc 660d 27bd
000003d0: f073 dabc 3c6a 1dbd 609a 4dbc 880d 27bd
000003e0: 1c52 853d 3094 7a3d 700d a73d b8a0 203d
000003f0: 280d a73c 780d 27bd 0000 0033 305a 0dbc
