defensePtqEval/UAPs/ptq_single/x_noisetst10000_w8a8_32.npy (npy, 12416 bytes, 1 tensors)

array f4 [1, 32, 32, 3]
00000000: c443 aa3d b033 9a3d 409a cd3c 2074 5abc
00000010: d033 9abd 8080 803b 809a cdbc 508a bdbd
00000020: 609b cdbc 8180 00be 809a 4dbd 2074 dabc
00000030: 8080 00be 50fd 163d 609a cdbc c09a cdbc
00000040: 8180 00be 809a cd3c 4034 1abc 5027 74bd
00000050: a0c0 c03c 709a 4dbd 709a 4dbd d833 9abd
00000060: 1054 ba3c 0000 0000 2074 dabc 8080 00bd
00000070: 709a cdbd 8080 00be 9080 803c 8080 003e
00000080: a8a8 a8bd 007a adbc 689a cdbd d033 9abd
00000090: 0000 80b3 00e8 b3bb 107a ad3d 4074 5abc
000000a0: e0c6 93bc e0b6 833d a09a cdbc 009a cd3c
000000b0: 8180 00be 649a cdbd b0c0 c03d 809a cdbc
000000c0: cc33 9a3d 801d 373d e0be 8b3d 7a80 00be
000000d0: 8180 00be 0000 0000 789a 4dbd d033 9abd
000000e0: 709a 4dbd a04d 673c 0034 1a3c c833 9abd
000000f0: 8180 00be 8180 00be d833 9abd 8180 003e
00000100: 589a cd3d d033 9a3d 709a cdbc b81b 82bd
00000110: b01b 82bd b09a cdbc e0e0 e0bd 689a cdbd
00000120: 589a 4d3d 409a 4d3d 2034 9abc 8180 00be
00000130: a09a cdbc 507a 2dbd 74aa dd3d 609a cd3d
00000140: 8080 003c dcb6 83bd 8088 88bd c080 003c
00000150: 509a cd3c d033 9a3d 689a cd3d 509a cd3c
00000160: 3064 4abd a8c8 c83d 0000 00b3 d8d8 d8bd
00000170: f8f8 f8bd 58ed 06bd 809a 4dbd 8180 00be
00000180: b0b0 30bd 609a 4dbd 700d 27bd 3062 95bd
00000190: 609a cdbc d033 9abd 78aa 5d3d b833 9a3d
000001a0: 709a 4dbd c833 9abd 609a 4dbd 8180 00be
000001b0: 004c e73b 209b cdbc e0d0 50bd 609a 4dbd
000001c0: 709a 4dbd b0b0 b0bd b843 2a3d 8080 00be
000001d0: 4027 743c 8180 00be 509a 4d3d 80ba ed3c
000001e0: 809a 4dbd 409a cd3c b0b0 303d 6c9a cdbd
000001f0: 0035 1abb 709a cdbd 6c9a cd3d 809a cd3d
00000200: 689a cd3d 0074 5abc d833 9abd 1054 3abd
00000210: 489a 4d3d 609a 4dbd 709a cd3d 8180 00be
00000220: 8080 00be 0000 0000 0474 da3d 8180 003e
00000230: c833 9a3d 50ed 063d 289a cd3d 50ed 063d
00000240: 8080 00be 9025 bfbd 0000 40b4 d033 9abd
00000250: 809a 4dbd c84b b23d 0000 0000 b833 9a3d
00000260: 0000 40b4 649a cd3d 8180 003e 409a 4d3d
00000270: 4081 00bc c09a cdbc 689a cdbd 4007 d43c
00000280: 509a 4d3d c033 9abd cc33 9a3d 0000 80b3
00000290: d033 9a3d cc33 9a3d 8080 00be 609a cd3c
000002a0: c433 9a3d c833 9a3d 809a cd3c c033 9abd
000002b0: 7c80 00be c033 9a3d 589a 4d3d 609a 4dbd
000002c0: 0000 00b4 cc33 9a3d 689a cdbd 8180 00be
000002d0: 689a 4d3d 689a cdbd 009a 4d3b 0000 0033
000002e0: 809a cdbc c82b 92bd 0000 0033 609a 4dbd
000002f0: 8080 00be f059 8d3c 689a cd3d 0000 0000
00000300: 609a cdbd 609a 4dbd 0000 0000 d03b a2bd
00000310: 809a cdbc 8027 f4bc a433 9a3d 009a cd3c
00000320: 209a cd3c c433 9a3d a09a cd3c b03b a23d
00000330: e873 5a3d 009a cd3c 489a cd3d 00e7 b33b
00000340: 809a cdbc 2007 d43c fcc6 933d 609a cdbc
00000350: 20ef bb3d 700d a7bd 80ba ed3c 409a cd3c
00000360: 609a cdbc 004e 67bc 2094 7a3d 8180 00be
00000370: 209a cdbc 407a adbc c02d c7bc 8080 003e
00000380: 689a cd3d f4c6 933d d033 9abd 7c80 003e
00000390: 009c 4d3a 8080 00be 809a cd3c 5c9a cd3d
000003a0: 809a cdbc 8180 00be c04d 673c 409a cd3d
000003b0: 409a cdbc 609a 4dbd a8a8 a83d c0c0 c03d
000003c0: 8080 00be c833 9abd 709a 4d3d a0a0 a0bd
000003d0: 8080 00be d833 9abd b44d e73d d033 9a3d
000003e0: 9833 9a3d d033 9abd 809a cdbc d033 9abd
000003f0: 689a 4d3d 8080 003e 801d 373d 689a cdbd
0.083137065 0.0752939 0.025097966 -0.01333335 -0.07529414 0.0039215684 -0.025098085 -0.09254897
-0.025098503 -0.1254902 -0.05019617 -0.0266667 -0.12549019 0.03686267 -0.025098026 -0.025098205
-0.1254902 0.025098085 -0.009411871 -0.059607804 0.02352935 -0.05019611 -0.05019611 -0.0752942
0.022745162 0.0 -0.0266667 -0.031372547 -0.10039222 -0.12549019 0.015686303 0.12549019
-0.082352936 -0.021176338 -0.10039216 -0.07529414 -5.9604645e-08 -0.005490303 0.08470547 -0.01333338
-0.018039167 0.06431365 -0.025098145 0.025097847 -0.1254902 -0.10039213 0.09411752 -0.025098085
0.07529411 0.044705868 0.06823516 -0.1254901 -0.1254902 0.0 -0.05019614 -0.07529414
-0.05019611 0.014117628 0.009411812 -0.07529408 -0.1254902 -0.1254902 -0.0752942 0.1254902
0.10039204 0.07529414 -0.025098056 -0.06352943 -0.06352937 -0.025098175 -0.109803915 -0.10039216
0.05019602 0.050195932 -0.018823683 -0.1254902 -0.025098145 -0.042352974 0.10823527 0.1003921
0.007843137 -0.06431362 -0.0666666 0.007843196 0.025097996 0.07529414 0.10039216 0.025097996
-0.049411952 0.09803897 -2.9802322e-08 -0.10588235 -0.12156862 -0.032941192 -0.05019617 -0.1254902
-0.043137252 -0.05019605 -0.0407843 -0.072941184 -0.025098026 -0.07529414 0.05411765 0.07529396
-0.05019611 -0.07529408 -0.05019605 -0.1254902 0.0070586205 -0.025098383 -0.05098045 -0.05019605
-0.05019611 -0.086274505 0.041568488 -0.12549019 0.014901936 -0.1254902 0.050195992 0.029019594
-0.05019617 0.025097966 0.043137252 -0.10039219 -0.0023530126 -0.10039222 0.10039219 0.10039234
0.10039216 -0.013333321 -0.0752942 -0.045490324 0.050195962 -0.05019605 0.10039222 -0.1254902
-0.12549019 0.0 0.106666595 0.1254902 0.07529408 0.032941163 0.100391686 0.032941163
-0.12549019 -0.09333336 -1.7881393e-07 -0.07529414 -0.05019617 0.087058604 0.0 0.07529396
-1.7881393e-07 0.10039213 0.1254902 0.050195932 -0.007843316 -0.025098205 -0.10039216 0.025882363
0.050195992 -0.07529402 0.07529411 -5.9604645e-08 0.07529414 0.07529411 -0.12549019 0.025098026
0.07529405 0.07529408 0.025098085 -0.07529402 -0.12549013 0.07529402 0.05019602 -0.05019605
-1.1920929e-07 0.07529411 -0.10039216 -0.1254902 0.05019608 -0.10039216 0.0031372309 2.9802322e-08
-0.025098085 -0.07137257 2.9802322e-08 -0.05019605 -0.12549019 0.0172548 0.10039216 0.0
-0.1003921 -0.05019605 0.0 -0.079215646 -0.025098085 -0.029803991 0.07529381 0.025097847
0.025097907 0.07529405 0.025098145 0.07921541 0.053333193 0.025097847 0.100391924 0.005490184
-0.025098085 0.025882304 0.07215688 -0.025098026 0.09176469 -0.0815686 0.029019594 0.025097966
-0.025098026 -0.014117718 0.06117642 -0.1254902 -0.025097907 -0.021176457 -0.024313807 0.12549019
0.10039216 0.07215682 -0.07529414 0.12549013 0.0007843375 -0.12549019 0.025098085 0.10039207
-0.025098085 -0.1254902 0.014117658 0.100391865 -0.025097966 -0.05019605 0.082352936 0.09411764
-0.12549019 -0.07529408 0.05019611 -0.07843137 -0.12549019 -0.0752942 0.112941176 0.07529414
0.07529372 -0.07529414 -0.025098085 -0.07529414 0.05019608 0.12549019 0.044705868 -0.10039216
