defensePtqEval/UAPs/ptq_single/x_noisetst10000_w32a32_32.npy (npy, 12416 bytes, 1 tensors)

array f4 [1, 32, 32, 3]
000000 81 80 00 be 6c 9a 4d bd 81 80 00 be 28 5a 8d bc
       -0.1254902 -0.050196096 -0.1254902 -0.017254904
000010 c2 33 9a 3d 2c f7 43 bd 34 9a 4d 3d b6 33 9a bd
       0.07529403 -0.047843143 0.050195888 -0.07529394
000020 c2 33 9a 3d c6 33 9a bd 6c 9a 4d bd ce 33 9a bd
       0.07529403 -0.07529406 -0.050196096 -0.07529412
000030 66 9a cd 3d be 33 9a 3d f8 99 cd 3c 39 9a cd bc
       0.10039215 0.075294 0.025097832 -0.025097953
000040 ce 33 9a bd d7 e0 e0 3c 68 9a cd bd 81 80 00 be
       -0.07529412 0.027450962 -0.10039216 -0.1254902
000050 81 80 00 be b1 23 8a 3d 3a 27 74 3d 24 94 7a bd
       -0.1254902 0.06745089 0.059607722 -0.061176434
000060 63 8a 3d 3d 68 9a cd bd 33 8a 3d 3d e1 4b b2 3d
       0.046274554 -0.10039216 0.046274375 0.08705879
000070 9a a0 20 3d 8c 7f 00 3c d6 33 9a bd 66 9a cd bd
       0.03921566 0.00784291 -0.07529418 -0.10039215
000080 88 2d c7 3c 00 00 00 b4 20 9a cd 3c fa f8 f8 bd
       0.024313703 -1.1920929e-07 0.025097907 -0.121568635
000090 c8 33 9a bd d8 33 9a bd 81 80 00 be 40 9a cd 3c
       -0.07529408 -0.0752942 -0.1254902 0.025097966
0000a0 40 9a cd 3c 70 9a 4d bd 00 27 74 3c 50 9a 4d bd
       0.025097966 -0.05019611 0.014901876 -0.050195992
0000b0 40 6a 1d bd 78 9a cd bd 76 80 00 3e 60 9a 4d bd
       -0.038431406 -0.10039228 0.12549004 -0.05019605
0000c0 68 9a cd bd 70 9a 4d bd 70 9a 4d bd 74 80 00 3e
       -0.10039216 -0.05019611 -0.05019611 0.12549001
0000d0 40 9a cd 3d c0 27 74 bc 6a 9a cd bd 00 00 40 b3
       0.100391865 -0.014902055 -0.10039218 -4.4703484e-08
0000e0 74 9a 4d bd 28 94 7a 3d 8e 2d c7 3d d8 e0 e0 3c
       -0.050196126 0.06117645 0.09725486 0.027450964
0000f0 72 a2 d5 bd 74 9a 4d 3d 34 6a 1d bd 80 9a cd bc
       -0.104313746 0.050196126 -0.03843136 -0.025098085
000100 80 9a cd bc 10 94 7a bd 80 9a cd 3c 78 ca 7d 3d
       -0.025098085 -0.06117636 0.025098085 0.061960667
000110 e0 53 ba bc c8 33 9a bd d0 33 9a bd 81 80 00 be
       -0.022745073 -0.07529408 -0.07529414 -0.1254902
000120 70 9a 4d 3d d0 e6 33 3d 00 00 00 00 40 0d a7 3c
       0.05019611 0.04392129 0.0 0.02039206
000130 00 9c 4d 3a d6 33 9a bd 6a 9a cd bd f0 63 4a bd
       0.0007843375 -0.07529418 -0.10039218 -0.049411714
000140 60 9a cd 3c 81 80 00 be 70 ca 7d 3d e0 e0 e0 3c
       0.025098026 -0.1254902 0.061960638 0.027450979
000150 80 e7 b3 bb 40 07 54 bd 90 98 98 3d 80 80 00 be
       -0.0054902434 -0.051764727 0.07450974 -0.12549019
000160 81 80 00 be 60 9a 4d bd d0 33 9a 3d 40 9a cd bc
       -0.1254902 -0.05019605 0.07529414 -0.025097966
000170 d0 33 9a bd 68 9a cd bd 6c 9a cd bd 68 9a cd bd
       -0.07529414 -0.10039216 -0.10039219 -0.10039216
000180 68 9a cd 3c 60 80 80 bb 81 80 00 be 59 fd 96 3d
       0.02509804 -0.0039215535 -0.1254902 0.07372541
000190 54 9a 4d 3d ce 33 9a bd 68 9a cd bd b9 b8 b8 bd
       0.050196007 -0.07529412 -0.10039216 -0.09019608
0001a0 ca 33 9a bd 92 3d 57 3d a8 ba ed 3c b4 90 10 bd
       -0.07529409 0.052548952 0.029019669 -0.03529425
0001b0 69 9a cd 3d 61 9a cd 3d 84 1d 37 3d 58 9a cd 3c
       0.10039217 0.10039211 0.044705883 0.02509801
0001c0 94 90 10 3d ca 33 9a 3d b9 33 9a 3d b1 33 9a 3d
       0.03529413 0.07529409 0.075293966 0.075293906
0001d0 3a ed 06 3d 64 9a 4d 3d 08 74 da bc fa f8 f8 bd
       0.03294108 0.050196066 -0.026666656 -0.121568635
0001e0 ce 33 9a bd 68 9a cd bd be 23 8a bd 51 92 c5 3d
       -0.07529412 -0.10039216 -0.067450985 0.09647048
0001f0 38 9a cd 3c 54 8a 3d 3d 84 2d 47 3d 54 9a 4d 3d
       0.025097951 0.046274498 0.04862739 0.050196007
000200 64 9a 4d 3d 68 a2 d5 bd d0 33 9a bd 70 9a 4d bd
       0.050196066 -0.10431367 -0.07529414 -0.05019611
000210 00 9a cd 3c 00 74 da bc 60 9a cd bc d0 33 9a bd
       0.025097847 -0.026666641 -0.025098026 -0.07529414
000220 70 aa 5d bd 60 9a cd bd 80 9a cd bc 20 5a 0d bd
       -0.05411762 -0.1003921 -0.025098085 -0.034509778
000230 80 80 80 3b 40 8a 3d 3d 58 92 c5 3d 80 80 00 3c
       0.0039215684 0.046274424 0.096470535 0.007843137
000240 40 e7 33 3c 20 9a cd 3c 70 9a 4d bd 00 00 80 b3
       0.010980427 0.025097907 -0.05019611 -5.9604645e-08
000250 40 9a cd 3c 68 9a cd bd d0 33 9a bd c8 33 9a bd
       0.025097966 -0.10039216 -0.07529414 -0.07529408
000260 a0 99 cd 3c 6a 9a cd 3d ce 33 9a 3d 46 ed 86 3d
       0.025097668 0.10039218 0.07529412 0.06588225
000270 b4 b0 30 bd 6c 9a 4d bd f0 73 5a 3d c0 33 1a bd
       -0.043137267 -0.050196096 0.053333223 -0.03764701
000280 10 84 6a bd 00 00 80 b3 81 80 00 be 70 9a 4d bd
       -0.05725485 -5.9604645e-08 -0.1254902 -0.05019611
000290 68 9a cd bd 00 80 80 bb 68 9a cd bd 68 9a cd bd
       -0.10039216 -0.003921509 -0.10039216 -0.10039216
0002a0 30 9a 4d 3d 70 9a 4d 3d 60 9a 4d bd 40 9a 4d 3d
       0.050195873 0.05019611 -0.05019605 0.050195932
0002b0 81 80 00 be 72 a2 d5 bd e0 33 1a bd 40 6a 1d 3d
       -0.1254902 -0.104313746 -0.037647128 0.038431406
0002c0 00 00 00 34 40 9a cd 3c 00 00 80 b3 b0 55 ef 3d
       1.1920929e-07 0.025097966 -5.9604645e-08 0.116862655
0002d0 20 9a 4d bd 68 9a cd bd 40 c1 40 bc 64 9a cd 3d
       -0.050195813 -0.10039216 -0.011764824 0.10039213
0002e0 68 9a cd bd d8 33 9a bd 64 9a cd 3d c0 c0 c0 3c
       -0.10039216 -0.0752942 0.10039213 0.02352941
0002f0 70 aa 5d bd 20 5a 8d bc 70 9a 4d bd a8 23 8a bd
       -0.05411762 -0.017254889 -0.05019611 -0.06745082
000300 81 80 00 3e 88 25 bf 3d 00 ba ed 3c c6 33 9a bd
       0.1254902 0.093333304 0.029019356 -0.07529406
000310 68 9a cd 3c 66 9a cd bd ae 33 9a 3d ca 33 9a 3d
       0.02509804 -0.10039215 0.07529388 0.07529409
000320 67 9a cd 3c ce 33 9a bd 7c aa 5d bd b2 33 9a 3d
       0.025098039 -0.07529412 -0.054117665 0.07529391
000330 20 81 80 bb c2 33 9a bd 74 9a cd 3c 44 17 64 bd
       -0.003921643 -0.07529403 0.025098063 -0.05568625
000340 62 9a 4d 3d b9 33 9a 3d ce 33 9a bd 66 9a cd bd
       0.05019606 0.075293966 -0.07529412 -0.10039215
000350 68 9a cd bd 78 9a cd bc d2 33 9a 3d 81 80 00 3e
       -0.10039216 -0.02509807 0.07529415 0.1254902
000360 69 9a cd 3d 66 9a cd bd c2 33 9a bd 68 9a cd bd
       0.10039217 -0.10039215 -0.07529403 -0.10039216
000370 99 98 98 bd 6a 9a 4d 3d 4e 9a cd 3d 00 00 80 33
       -0.07450981 0.05019609 0.10039197 5.9604645e-08
000380 80 80 80 3b 00 00 00 00 80 80 00 be c0 43 2a bd
       0.0039215684 0.0 -0.12549019 -0.041568518
000390 c0 c0 c0 bc e0 53 ba bc 68 9a cd 3d c0 d0 d0 3d
       -0.02352941 -0.022745073 0.10039216 0.10196066
0003a0 80 80 00 be 80 80 80 bd 40 9a cd bc 90 9a cd bd
       -0.12549019 -0.062745094 -0.025097966 -0.10039246
0003b0 e0 4d e7 bc 68 9a cd bd e0 e0 e0 3c 70 9a 4d bd
       -0.028235376 -0.10039216 0.027450979 -0.05019611
0003c0 40 27 74 3c 60 9a 4d 3d 80 aa 5d 3d 80 9a cd 3c
       0.014901936 0.05019605 0.05411768 0.025098085
0003d0 00 00 00 00 a0 a0 a0 3c 00 81 80 bb e0 9a cd bc
       0.0 0.019607842 -0.003921628 -0.025098264
0003e0 68 9a cd bd 80 9a cd 3c 00 00 80 b3 a0 a0 20 bd
       -0.10039216 0.025098085 -5.9604645e-08 -0.039215684
0003f0 20 6a 1d bd 70 9a 4d bd 40 a0 a0 3c 78 9a 4d 3d
       -0.038431287 -0.05019611 0.019607663 0.05019614
