defensePtqEval/UAPs/ptq_single/x_noisetr10000_w32a32_26.npy (npy, 12416 bytes, 1 tensors)

array f4 [1, 32, 32, 3]
0	0x34380000	1.7136335e-07
1	0xbc8d59e4	-0.017254777
2	0xbca70d38	-0.020392045
3	0xbbb3e710	-0.0054901913
4	0xbcad7a88	-0.021176592
5	0xbd7a941c	-0.061176404
6	0x3d270d89	0.040784393
7	0x3d06ed54	0.032941177
8	0xbdd0d0ce	-0.10196076
9	0xbca70dbc	-0.020392291
10	0x3ca70d58	0.020392105
11	0x3bcd9ac0	0.006274551
12	0x3d8bbf07	0.06823545
13	0xbd270d7c	-0.040784344
14	0x3d16fd60	0.03686273
15	0xbd7dcab6	-0.0619609
16	0xbd5daa94	-0.054117754
17	0xbd20a0a0	-0.039215684
18	0xbd4a6414	-0.04941185
19	0x3d7a9434	0.061176494
20	0x3cc0c0c0	0.02352941
21	0x33900000	6.7055225e-08
22	0x3d270da4	0.040784493
23	0x3d83b6e8	0.06431371
24	0xbcba53bc	-0.022745006
25	0xbca70d60	-0.02039212
26	0x3d7a9430	0.06117648
27	0xbdd0d0d1	-0.101960786
28	0xbd7a9430	-0.06117648
29	0x3d3d8a30	0.046274364
30	0xbca70d88	-0.020392194
31	0xbca70da0	-0.02039224
32	0xbd270d70	-0.0407843
33	0x3dd0d0d1	0.101960786
34	0x3ca70dc0	0.020392299
35	0xbcad7a40	-0.021176457
36	0x3cd40768	0.025882438
37	0xbda70d74	-0.08156863
38	0xbd270d70	-0.0407843
39	0x3cc0c0c8	0.023529425
40	0x33800000	5.9604645e-08
41	0x3d40c0c0	0.04705882
42	0x3d270d7c	0.040784344
43	0x3da70d74	0.08156863
44	0x3da70d74	0.08156863
45	0xbdd0d0d1	-0.101960786
46	0xbcfa9440	-0.03058827
47	0xbda70d70	-0.0815686
48	0xbda70d74	-0.08156863
49	0xbd270da0	-0.04078448
50	0x00000000	0.0
51	0xbdd0d0c3	-0.10196068
52	0x00000000	0.0
53	0xbda23bf0	-0.079215884
54	0x3d23d70c	0.040000007
55	0xb3800000	-5.9604645e-08
56	0x3dd0d0d1	0.101960786
57	0xbd7a9414	-0.061176375
58	0xbda70d70	-0.0815686
59	0xbdd0d0d1	-0.101960786
60	0xbc8d5a18	-0.017254874
61	0x00000000	0.0
62	0x3ca70d60	0.02039212
63	0x3da70d8a	0.08156879
64	0x3ca70dc0	0.020392299
65	0x3d7a9450	0.061176598
66	0xbca70d58	-0.020392105
67	0xbd7a9440	-0.06117654
68	0x3d83b6e8	0.06431371
69	0x3ca70d78	0.020392165
70	0xbc0d5a00	-0.008627415
71	0x3ca70de0	0.020392358
72	0x3d7a943c	0.061176524
73	0x3dd0d0d1	0.101960786
74	0xbdd0d0d0	-0.10196078
75	0xbdd0d0d1	-0.101960786
76	0xbd4a6400	-0.049411774
77	0x3d270d80	0.04078436
78	0x3dd0d0d1	0.101960786
79	0x3da70d60	0.08156848
80	0x3d775dd0	0.0603922
81	0xbd70f0e4	-0.05882348
82	0xbd371d80	-0.044705868
83	0xbda70d74	-0.08156863
84	0x3d270d74	0.040784314
85	0x3d06ed50	0.032941163
86	0xbca70d60	-0.02039212
87	0xbc742770	-0.014901981
88	0x3d270d70	0.0407843
89	0xbd0d5a20	-0.034509778
90	0xbd7a93ec	-0.061176226
91	0xbccd9a40	-0.025097966
92	0xbca70d60	-0.02039212
93	0xbc008090	-0.007843152
94	0xbc008080	-0.007843137
95	0xbca70d50	-0.02039209
96	0x3ca70d7a	0.020392168
97	0x32800000	1.4901161e-08
98	0x3ca70d68	0.020392135
99	0xbd3d8a66	-0.046274565
100	0x3d7a9424	0.061176434
101	0xbda70d74	-0.08156863
102	0xbd16fd5e	-0.036862724
103	0x3dd0d0d1	0.101960786
104	0x3d270d80	0.04078436
105	0x3c008068	0.007843114
106	0xbda70d7a	-0.08156867
107	0xbc9a3440	-0.018823743
108	0xbca70d74	-0.020392157
109	0xbd270d74	-0.040784314
110	0xb3800000	-5.9604645e-08
111	0xbd808081	-0.0627451
112	0x3da70d76	0.08156864
113	0x3d7a9450	0.061176598
114	0x3d371d96	0.04470595
115	0x3da70d74	0.08156863
116	0x34000000	1.1920929e-07
117	0xbdd0d0d1	-0.101960786
118	0x3ca70d80	0.02039218
119	0xbdd0d0d0	-0.10196078
120	0x32800000	1.4901161e-08
121	0xbd270d70	-0.0407843
122	0xbd7a9438	-0.06117651
123	0xbd7a9436	-0.0611765
124	0x3d371d90	0.044705927
125	0x3dd0d0d1	0.101960786
126	0xbdd0d0d1	-0.101960786
127	0xbda70d88	-0.08156878
128	0x3da70d74	0.08156863
129	0x3dd0d0d1	0.101960786
130	0x3d7a9430	0.06117648
131	0xbc1a3380	-0.009411693
132	0x3dd0d0d1	0.101960786
133	0xbd9f057c	-0.07764718
134	0xbda70d74	-0.08156863
135	0xbda70d75	-0.081568636
136	0xbdd0d0d0	-0.10196078
137	0xbca70de0	-0.020392358
138	0x33a00000	7.4505806e-08
139	0x3ca70d80	0.02039218
140	0x3da70d74	0.08156863
141	0x3d270d74	0.040784314
142	0x3d7a9430	0.06117648
143	0x3da70d6c	0.08156857
144	0xbdd0d0d1	-0.101960786
145	0xb4800000	-2.3841858e-07
146	0xbd06ed70	-0.03294128
147	0xbca70d58	-0.020392105
148	0x3d7a9470	0.061176717
149	0x3d270d60	0.04078424
150	0xbdd0d0d1	-0.101960786
151	0xbc742780	-0.014901996
152	0xbc8080a0	-0.015686333
153	0xbd7a942c	-0.061176464
154	0xbdd0d0d0	-0.10196078
155	0x3b808100	0.003921628
156	0x3d371d6c	0.044705793
157	0xbdd0d0d0	-0.10196078
158	0x3da70d74	0.08156863
159	0xbdd0d0cf	-0.10196077
160	0xbda70d70	-0.0815686
161	0xbda70d6c	-0.08156857
162	0x3d8d5a1e	0.06901954
163	0xbd9f0570	-0.07764709
164	0x3d270d68	0.04078427
165	0xbd7a9434	-0.061176494
166	0x33800000	5.9604645e-08
167	0xbca70d80	-0.02039218
168	0xbd7a9444	-0.061176553
169	0xbca70e40	-0.020392537
170	0xbd270d70	-0.0407843
171	0xbd270d14	-0.040783957
172	0x3d7a9410	0.06117636
173	0x3c270d40	0.01019603
174	0x3ca70d88	0.020392194
175	0xbd7a9430	-0.06117648
176	0xbd270d70	-0.0407843
177	0x33000000	2.9802322e-08
178	0xbd7a9420	-0.06117642
179	0xbdd0d0d1	-0.101960786
180	0x3d270d64	0.040784255
181	0xbc008080	-0.007843137
182	0xbd7a9430	-0.06117648
183	0xbda70d6e	-0.081568584
184	0xbd8a23c0	-0.067451
185	0xbd4d9a68	-0.05019608
186	0x3dd0d0d1	0.101960786
187	0xbc0d5a80	-0.008627534
188	0x3d7a9448	0.06117657
189	0xbca70d58	-0.020392105
190	0xbb808080	-0.0039215684
191	0x3d50d0c8	0.05098036
192	0x3ce0e0fa	0.027451027
193	0x3d03b6e6	0.032156847
194	0x3d270d74	0.040784314
195	0x3d371d81	0.04470587
196	0x3dd0d0d1	0.101960786
197	0x3d270d70	0.0407843
198	0xbc008078	-0.007843129
199	0x3c5a73d0	0.013333276
200	0x3d0a2390	0.03372532
201	0xbca70d74	-0.020392157
202	0xbd472d94	-0.04862745
203	0xbcda7400	-0.026666641
204	0x3ca70d98	0.020392224
205	0x3ca70d38	0.020392045
206	0xbd270da0	-0.04078448
207	0x3dd0d0cf	0.10196077
208	0x3da70d76	0.08156864
209	0x3d270d80	0.04078436
210	0xbd270d96	-0.04078444
211	0xbca70d58	-0.020392105
212	0xbdd0d0d1	-0.101960786
213	0xbd16fd2e	-0.036862545
214	0x3da70d74	0.08156863
215	0xbca70d80	-0.02039218
216	0x3da70d76	0.08156864
217	0xb4400000	-1.7881393e-07
218	0xbd270d90	-0.04078442
219	0x3da70d6a	0.081568554
220	0xbda70d74	-0.08156863
221	0x3d20a088	0.039215595
222	0xbda70d79	-0.081568666
223	0xbdd0d0d1	-0.101960786
224	0x3da70d74	0.08156863
225	0xbdd0d0d1	-0.101960786
226	0xbdd0d0d1	-0.101960786
227	0x3dd0d0d1	0.101960786
228	0x3da70d72	0.08156861
229	0x3ca70d80	0.02039218
230	0x3d956234	0.072941214
231	0x3d270d7c	0.040784344
232	0xbdd0d0d1	-0.101960786
233	0xbca70d80	-0.02039218
234	0xbd7a942c	-0.061176464
235	0xbdd0d0d1	-0.101960786
236	0xbdd0d0c8	-0.10196072
237	0xbca70d78	-0.020392165
238	0xbca70d80	-0.02039218
239	0x3d270d60	0.04078424
240	0x3d7a942c	0.061176464
241	0x3dd0d0c8	0.10196072
242	0xbd7a9430	-0.06117648
243	0x3c93c6f8	0.018039212
244	0x3d50d0dc	0.050980434
245	0xbdd0d0d1	-0.101960786
246	0xbc93c6a8	-0.018039063
247	0xbda70d80	-0.08156872
248	0x00000000	0.0
249	0x3d7a9414	0.061176375
250	0xbdd0d0d0	-0.10196078
251	0x3d03b6f0	0.032156885
252	0x3da70d7e	0.0815687
253	0xbda70d7a	-0.08156867
254	0xbdd0d0d1	-0.101960786
255	0xbc0d59f0	-0.0086274
