defensePtqEval/UAPs/uqat_single/x_noisetr10000_w8a8_26.npy (npy, 12416 bytes, 1 tensors)

array f4 [1, 3, 32, 32]
00000000: 8180 00bc 4c0d a73c 740d a73d 1e94 7a3d
00000010: 8dba edbc 8180 80bc 7a0d 273d e833 1a3c
00000020: 730d a7bd 7105 9f3d 740d a73d d1d0 d03d
00000030: 5e0d 273d 6b0d a7bd 7d0d a73d d1d0 d03d
00000040: 660d 273d 0000 20b2 c1c0 c0bc f30d a73c
00000050: 750d a73d ffbe 8b3d 810d a73d 740d a7bd
00000060: 740d a7bd 2e94 7a3d a90d 27bc 730d a7bd
00000070: c1c0 40bc 0ce7 b33c 6c0d a7bc 6c0d a7bc
00000080: d1d0 d03d d1d0 d03d c1c0 40bc 0294 7a3d
00000090: 760d 27bd 62fd 163d 740d a73d 26d7 23bd
000000a0: 6a0d 273d 6e0d 273d 610d a73d d1d0 d03d
000000b0: ac0d a7bc 729a 4d3d 560d 27bd a1a0 a0bc
000000c0: 1e94 7a3d a135 cf3d c1c0 c0bc c1c0 c0bc
000000d0: 0000 2033 a1a0 a0bc 0000 2ab4 8180 80bc
000000e0: 3b5a 8d3c 1694 7abd 395a 8d3d c1c0 40bc
000000f0: 2e94 7a3d 7c80 80bc 1e94 7a3d c1c0 40bc
00000100: 2e94 7a3d 5280 80bb 599a 4dbc 4694 7abd
00000110: 1e94 7a3d 62fd 163d c1c0 40bc 730d a7bd
00000120: d1d0 d03d 730d a7bd 8c0d a7bc d1d0 d03d
00000130: 9480 80bb f15b c23d 420d 273d c1c0 c0bc
00000140: a1a0 a0bc 2294 7a3d a2ba 6d3d 8a80 00bc
00000150: 661d 37bd 730d a73c 6f0d a73d 740d a73d
00000160: 5e0d 273d 8180 80bc 2694 7abd 7394 fa3c
00000170: c9d0 d03d 2e94 7abd bcc0 c0bc 59e7 33bc
00000180: 860d 27bd 4a94 7a3d 730d a7bd d1d0 d03d
00000190: b1d0 d03d 730d a7bd d1d0 d03d 28e7 333c
000001a0: 660d 27bd 465a 0dbd 660d 27bd 740d a73d
000001b0: 8180 80bc 62fd 163d 6e0d 273d d1d0 d03d
000001c0: a1a0 a0bc c1c0 c0bc a1a0 a0bc 5aed 063d
000001d0: 1694 7abd 4694 7abd 2e94 7a3d 2e94 7a3d
000001e0: 88c0 40bc 5ed7 233d b64d 67bd f32d c73c
000001f0: 7a0d 273d fa93 7a3d 740d a73d d1d0 d03d
00000200: 8180 00bc c1c0 40bc 5e0d 273d 9280 80bb
00000210: 140d a73c 5280 80bb 2e34 9a3b 0000 d4b3
00000220: 8180 80bc 6e0d 273d 0000 7634 760d 27bd
00000230: 460d 27bd 8180 80bc 2294 7a3d d1d0 d03d
00000240: a1a0 a0bc 0000 20b2 530d a73c 56fd 16bd
00000250: 710d a73d 740d a7bd a1a0 a0bc d1d0 d03d
00000260: 1694 7abd cc0d a7bc 830d a73c 730d a7bd
00000270: 8180 80bc 1e94 7a3d 4e94 7a3d 8180 00bc
00000280: 8180 00bc 1ac7 133d de53 3a3d 6afd 163d
00000290: 660d 273d 740d a73c 4c0d a7bc 6afd 163d
000002a0: 6d0d a73d 8a0d 273d 0000 94b3 730d a73c
000002b0: d1d0 d03d b623 0abd cb0d a73c c1c0 c0bc
000002c0: 740d a73d 1694 7abd 740d a73d 660d 27bd
000002d0: 710d a73d 863d 57bd dfb6 83bd 517a ad3d
000002e0: 2694 7abd b53b a23d 740d a7bd b5c0 c03d
000002f0: 5e0d 273d ac0d a7bc dce0 e0bc c1c0 40bc
00000300: 730d a7bd 9e2d 473d 9280 80bb 104e e73b
00000310: 8180 80bc 760d 27bd 2694 7a3d 760d 27bd
00000320: 6d0d a73d 2694 7a3d a1a0 a0bc 7a0d 273d
00000330: 0000 d4b3 0000 b032 c1c0 c0bc c1c0 c0bc
00000340: 3694 7a3d c1c0 c0bc 440d a7bc 52ed 063d
00000350: d1d0 d03d 9e94 7a3d 2e94 7abd d699 4d3c
00000360: 7b0d a73c 0000 94b3 760d 273d e663 4a3d
00000370: 740d a73c 730d a73d 730d a7bd 130d a73c
00000380: 8180 00bc 9cba edbc 52ed 063d 6880 00bc
00000390: 5aed 063d 7c0d a7bc b5b8 b83d 660d 273d
000003a0: 8180 80bc 6b0d a73c ab0d a73c 437a ad3c
000003b0: 960d 27bd 62fd 163d 690d a73d 8a80 00bc
000003c0: 760d 27bd 2e94 7a3d 2e94 7abd c40d a7bc
000003d0: 750d a73d e40d a7bc 6e0d 273d c1c0 c0bc
000003e0: 730d a73c 0000 20b2 2e94 7a3d 760d 27bd
000003f0: c32b 92bd bcc0 c0bc e6c6 13bd 2694 7abd
-0.007843138 0.020392083 0.08156863 0.06117641 -0.029019618 -0.015686275 0.040784337 0.0094117895
-0.08156862 0.0776471 0.08156863 0.101960786 0.040784232 -0.08156856 0.081568696 0.101960786
0.040784262 -9.313226e-09 -0.023529412 0.020392394 0.081568636 0.06823539 0.081568725 -0.08156863
-0.08156863 0.06117647 -0.010196128 -0.08156862 -0.011764706 0.021960758 -0.020392142 -0.020392142
0.101960786 0.101960786 -0.011764706 0.061176307 -0.04078432 0.03686274 0.08156863 -0.040000103
0.040784277 0.040784292 0.08156849 0.101960786 -0.020392261 0.05019612 -0.040784203 -0.019607844
0.06117641 0.10117651 -0.023529412 -0.023529412 3.7252903e-08 -0.019607844 -1.5832484e-07 -0.015686275
0.01725494 -0.061176382 0.06901974 -0.011764706 0.06117647 -0.015686266 0.06117641 -0.011764706
0.06117647 -0.003921547 -0.012549006 -0.06117656 0.06117641 0.03686274 -0.011764706 -0.08156862
0.101960786 -0.08156862 -0.020392202 0.101960786 -0.0039215777 0.09490193 0.040784128 -0.023529412
-0.019607844 0.061176427 0.058039315 -0.007843146 -0.04470577 0.020392155 0.08156859 0.08156863
0.040784232 -0.015686275 -0.06117644 0.030588364 0.101960726 -0.06117647 -0.023529403 -0.010980451
-0.04078438 0.061176576 -0.08156862 0.101960786 0.10196055 -0.08156862 0.101960786 0.010980405
-0.040784262 -0.03450992 -0.040784262 0.08156863 -0.015686275 0.03686274 0.040784292 0.101960786
-0.019607844 -0.023529412 -0.019607844 0.0329412 -0.061176382 -0.06117656 0.06117647 0.06117647
-0.011764653 0.040000312 -0.056470595 0.024313902 0.040784337 0.061176278 0.08156863 0.101960786
-0.007843138 -0.011764706 0.040784232 -0.003921577 0.020391978 -0.003921547 0.0047059273 -9.872019e-08
-0.015686275 0.040784292 2.2910535e-07 -0.04078432 -0.040784143 -0.015686275 0.061176427 0.101960786
-0.019607844 -9.313226e-09 0.020392096 -0.036862694 0.081568606 -0.08156863 -0.019607844 0.101960786
-0.061176382 -0.020392321 0.020392185 -0.08156862 -0.015686275 0.06117641 0.06117659 -0.007843138
-0.007843138 0.03607855 0.04549014 0.03686277 0.040784262 0.020392157 -0.020392083 0.03686277
0.08156858 0.040784396 -6.891787e-08 0.020392155 0.101960786 -0.033725463 0.02039232 -0.023529412
0.08156863 -0.061176382 0.08156863 -0.040784262 0.081568606 -0.052548908 -0.06431364 0.08470596
-0.06117644 0.079215445 -0.08156863 0.09411756 0.040784232 -0.020392261 -0.027450971 -0.011764706
-0.08156862 0.04862749 -0.003921577 0.0070588663 -0.015686275 -0.04078432 0.06117644 -0.04078432
0.08156858 0.06117644 -0.019607844 0.040784337 -9.872019e-08 2.0489097e-08 -0.023529412 -0.023529412
0.0611765 -0.023529412 -0.020392068 0.03294117 0.101960786 0.06117689 -0.06117647 0.012548884
0.02039217 -6.891787e-08 0.04078432 0.049411677 0.020392157 0.08156862 -0.08156862 0.020391976
-0.007843138 -0.029019646 0.03294117 -0.007843114 0.0329412 -0.020392172 0.09019605 0.040784262
-0.015686275 0.02039214 0.02039226 0.021176463 -0.04078444 0.03686274 0.08156855 -0.007843146
-0.04078432 0.06117647 -0.06117647 -0.020392306 0.081568636 -0.020392366 0.040784292 -0.023529412
0.020392155 -9.313226e-09 0.06117647 -0.04078432 -0.07137253 -0.023529403 -0.036078356 -0.06117644
