defensePtqEval/UAPs/uqat_single/x_noisetr10000_w2a2_26.npy (npy, 12416 bytes, 1 tensors)

array f4 [1, 3, 32, 32]
000000 b0 c0 40 bd c8 d0 d0 3d 00 00 80 b3 70 0d 27 bd
       -0.04705876 0.10196072 -5.9604645e-08 -0.0407843
000010 c2 c8 c8 3d 74 0d 27 bd d1 d0 d0 bd 44 ed 06 3d
       0.098039165 -0.040784314 -0.101960786 0.032941118
000020 48 9a cd 3c 00 00 30 34 c2 c8 c8 3d 48 0d a7 3c
       0.025097981 1.6391277e-07 0.098039165 0.020392075
000030 50 0d a7 3c 00 00 00 00 00 5a 8d 3c c0 9a 4d 3c
       0.02039209 0.0 0.01725483 0.012549102
000040 14 74 5a 3d 08 e7 b3 3c 90 3d 57 3d f0 c6 13 3d
       0.053333357 0.02196075 0.052548945 0.036078393
000050 80 0d a7 3c 00 00 80 b3 c0 33 9a 3d 00 00 80 b3
       0.02039218 -5.9604645e-08 0.07529402 -5.9604645e-08
000060 a0 0d a7 3c c0 c0 c0 3d 78 0d a7 bd 40 84 6a bd
       0.02039224 0.09411764 -0.08156866 -0.05725503
000070 30 ef bb bd 30 94 7a bd a0 a0 a0 bc d1 d0 d0 bd
       -0.09176481 -0.06117648 -0.019607842 -0.101960786
000080 28 94 7a bd 40 07 d4 bc 30 94 7a 3d d1 d0 d0 3d
       -0.06117645 -0.025882363 0.06117648 0.101960786
000090 38 62 95 bd e0 99 cd bb 88 0d a7 3c d1 d0 d0 3d
       -0.07294124 -0.006274447 0.020392194 0.101960786
0000a0 72 0d a7 3d 94 a0 20 bd 76 0d a7 3d 54 8a 3d 3d
       0.08156861 -0.03921564 0.08156864 0.046274498
0000b0 40 5a 0d 3c f0 c6 13 3d d1 d0 d0 3d 30 94 7a 3d
       0.008627474 0.036078393 0.101960786 0.06117648
0000c0 14 94 7a bd cc 4d 67 bd e0 53 3a 3d 80 0d a7 bc
       -0.061176375 -0.056470677 0.045490146 -0.02039218
0000d0 70 0d a7 bd 74 0d a7 bd 00 00 40 34 70 0d 27 3d
       -0.0815686 -0.08156863 1.7881393e-07 0.0407843
0000e0 80 0d 27 bd 00 00 00 00 20 94 7a 3d 88 0d a7 bd
       -0.04078436 0.0 0.06117642 -0.08156878
0000f0 78 0d a7 bd 80 05 9f 3d 70 0d a7 3d 40 0d a7 3c
       -0.08156866 0.07764721 0.0815686 0.02039206
000100 d0 d0 d0 bd 30 94 7a 3d d1 d0 d0 bd 30 94 7a 3d
       -0.10196078 0.06117648 -0.101960786 0.06117648
000110 d1 d0 d0 bd 54 ed 06 bd 28 94 fa 3c 34 94 7a 3d
       -0.101960786 -0.032941177 0.030588225 0.061176494
000120 00 00 a0 33 88 c0 c0 bc d1 d0 d0 3d 74 0d 27 3d
       7.4505806e-08 -0.023529306 0.101960786 0.040784314
000130 54 94 7a 3d 00 00 40 b3 60 0d 27 3d 20 4e 67 bc
       0.061176613 -4.4703484e-08 0.04078424 -0.014117748
000140 78 0d a7 bc f8 c6 93 bd 30 5a 0d 3d 90 80 00 bd
       -0.020392165 -0.07215685 0.034509838 -0.031372607
000150 f0 c6 13 3d 74 0d a7 bd 74 0d a7 bd 70 0d 27 3d
       0.036078393 -0.08156863 -0.08156863 0.0407843
000160 78 0d a7 3d 30 94 7a bd 30 94 7a 3d 80 9a cd 3c
       0.08156866 -0.06117648 0.06117648 0.025098085
000170 70 0d a7 3d 30 94 7a bd 60 0d 27 3d 78 0d a7 3d
       0.0815686 -0.06117648 0.04078424 0.08156866
000180 58 fd 16 3d 34 94 7a 3d 9a 25 bf 3d 68 0d a7 3d
       0.0368627 0.061176494 0.09333344 0.08156854
000190 98 35 cf 3d d0 d0 d0 bd 62 0d a7 bd 76 0d a7 3d
       0.10117644 -0.10196078 -0.081568494 0.08156864
0001a0 d1 d0 d0 3d 3c 94 7a bd c8 ba ed 3c 80 0d a7 bc
       0.101960786 -0.061176524 0.029019728 -0.02039218
0001b0 ca d0 d0 3d 32 94 7a bd bc 53 3a bd 17 52 85 bd
       0.10196073 -0.061176486 -0.04549001 -0.06509798
0001c0 d1 d0 d0 3d 00 4e 67 bc 80 0d 27 3d 80 0d a7 3c
       0.101960786 -0.014117718 0.04078436 0.02039218
0001d0 78 0d 27 3d d1 d0 d0 3d 00 f1 70 bd c0 23 0a bd
       0.04078433 0.101960786 -0.058823586 -0.0337255
0001e0 00 00 00 34 10 07 54 bd 80 ed 86 3c 70 0d 27 3d
       1.1920929e-07 -0.051764548 0.01647067 0.0407843
0001f0 60 0d a7 3c 70 0d a7 3d 60 6a 9d bd d1 d0 d0 3d
       0.02039212 0.0815686 -0.07686305 0.101960786
000200 50 27 74 3c 1e 5a 8d bd d1 d0 d0 3d 80 99 cd bb
       0.014901951 -0.06901954 0.101960786 -0.006274402
000210 00 9a cd ba 70 0d a7 bd 54 0d 27 3d 2a 94 7a bd
       -0.0015686154 -0.0815686 0.040784195 -0.061176457
000220 72 0d a7 3d 70 4d 67 3c 90 ed 86 3c e8 33 1a 3d
       0.08156861 0.014117584 0.0164707 0.037647158
000230 10 74 5a bd 62 0d a7 3d 7c 80 80 bc 2c 94 7a 3d
       -0.053333342 0.081568494 -0.015686266 0.061176464
000240 7a 0d a7 3d 30 94 7a bd d0 d0 d0 3d cc d0 d0 3d
       0.08156867 -0.06117648 0.10196078 0.10196075
000250 80 0d a7 bc 00 9c cd 3a 90 90 10 bd f8 c6 93 bd
       -0.02039218 0.001568675 -0.035294116 -0.07215685
000260 20 94 7a 3d 20 94 7a bd c0 2d c7 bc 80 0d a7 bc
       0.06117642 -0.06117642 -0.024313807 -0.02039218
000270 d1 d0 d0 bd cc d0 d0 bd 74 0d a7 bd 20 2d c7 bc
       -0.101960786 -0.10196075 -0.08156863 -0.02431351
000280 20 74 5a 3d 02 cf 9b bd a8 ba ed bc a2 0d a7 bd
       0.0533334 -0.07607843 -0.029019669 -0.08156897
000290 d1 d0 d0 3d d4 d0 50 bd d1 d0 d0 3d 71 0d a7 bd
       0.101960786 -0.050980404 0.101960786 -0.081568606
0002a0 69 0d a7 bd 98 ba ed bc 74 0d a7 3d 48 94 7a 3d
       -0.08156855 -0.029019639 0.08156863 0.06117657
0002b0 00 00 00 b3 d1 d0 d0 bd d1 d0 d0 3d 67 0d a7 3d
       -2.9802322e-08 -0.101960786 0.101960786 0.08156853
0002c0 18 ed 86 3c 60 0d a7 3c 28 94 7a 3d 70 0d a7 bc
       0.016470477 0.02039212 0.06117645 -0.02039215
0002d0 d1 d0 d0 3d 70 0d 27 3d 80 2d c7 bc 60 0d a7 3c
       0.101960786 0.0407843 -0.024313688 0.02039212
0002e0 d1 d0 d0 bd 00 00 00 00 80 0d a7 3c a0 0d a7 bc
       -0.101960786 0.0 0.02039218 -0.02039224
0002f0 28 94 7a 3d b0 d0 50 3d 40 0d a7 bc 30 f7 43 3d
       0.06117645 0.05098027 -0.02039206 0.04784316
000300 30 94 7a 3d 00 00 00 b3 78 0d 27 3d f8 ce 9b bd
       0.06117648 -2.9802322e-08 0.04078433 -0.076078355
000310 22 52 85 bd 68 94 fa bc c2 2b 92 3d d1 d0 d0 bd
       -0.06509806 -0.030588344 0.071372524 -0.101960786
000320 ce d0 d0 3d 76 0d a7 3d d1 d0 d0 3d b0 2d c7 3c
       0.10196076 0.08156864 0.101960786 0.024313778
000330 d1 d0 d0 3d d1 d0 d0 bd 7a 0d 27 3d 16 84 6a 3d
       0.101960786 -0.101960786 0.040784337 0.057254873
000340 72 0d a7 3d 34 94 7a 3d c0 80 80 bb 78 0d 27 3d
       0.08156861 0.061176494 -0.003921598 0.04078433
000350 80 9d 4d bb 08 cf 9b bd d0 d0 d0 bd 80 0d a7 bc
       -0.0031374395 -0.076078475 -0.10196078 -0.02039218
000360 40 2d c7 bc 60 07 54 bd a0 0d a7 bc d0 d0 d0 bd
       -0.02431357 -0.051764846 -0.02039224 -0.10196078
000370 84 0d 27 3d 30 94 7a bd 70 0d a7 3d 78 0d a7 3d
       0.040784374 -0.06117648 0.0815686 0.08156866
000380 78 0d 27 3d 00 00 00 b3 1c 5a 8d bd 30 94 7a 3d
       0.04078433 -2.9802322e-08 -0.069019526 0.06117648
000390 d1 d0 d0 3d 74 0d a7 3d d1 d0 d0 bd 86 80 80 3d
       0.101960786 0.08156863 -0.101960786 0.06274514
0003a0 f6 b6 03 bd a8 0d a7 3c 7a 0d a7 3d d4 d0 50 3d
       -0.032156907 0.020392254 0.08156867 0.050980404
0003b0 74 0d 27 3d 8a 0d 27 bd 74 0d a7 3c cd d0 d0 bd
       0.040784314 -0.040784396 0.020392157 -0.101960756
0003c0 2c 94 7a 3d 7c 0d 27 bd 70 0d a7 bc b0 0d a7 bc
       0.061176464 -0.040784344 -0.02039215 -0.020392269
0003d0 60 0d a7 3c 60 0d 27 bd 78 0d a7 3d 70 0d a7 bd
       0.02039212 -0.04078424 0.08156866 -0.0815686
0003e0 70 0d a7 3d 70 0d a7 3d 30 74 5a 3d 28 94 7a 3d
       0.0815686 0.0815686 0.05333346 0.06117645
0003f0 8a 35 cf 3d 70 0d a7 3d b0 c0 40 3d 00 00 40 34
       0.10117634 0.0815686 0.04705876 1.7881393e-07
