defensePtqEval/UAPs/uqat_single/x_noisetr10000_w1a1_26.npy (npy, 12416 bytes, 1 tensors)

array f4 [1, 3, 32, 32]
0.028235354 -0.061176397 -0.08156863 -0.020392157 -0.061176457 -0.061176382 -0.020392098 0.061176497
-0.020392142 -0.08156862 0.020392157 0.02039216 -0.08156863 -0.007843114 0.007843092 -0.101960786
-0.101960786 -0.101960756 -0.0047059506 -0.016470574 -0.06117644 -0.101960786 -0.06196092 -0.101960786
-0.008627459 -0.070588335 -0.10196075 -0.08156858 0.028235398 -0.020392098 -0.08156864 -0.02039215
0.10196074 -0.08156863 0.040784337 -3.7252903e-08 -0.07058824 -0.08156863 0.029019635 -0.043137256
-0.08156863 0.08156874 0.07294121 -0.05882353 0.02039196 0.040784337 -0.003921464 -2.2351742e-08
-0.09019608 0.054117903 0.040784344 -2.2351742e-08 -2.2351742e-08 -0.08156863 0.032941088 -0.061176762
0.07294129 -0.06117656 0.06509803 -0.08156863 -0.101960786 0.0611765 0.04078432 -0.101960786
-2.2351742e-08 -0.03686277 0.10196068 -0.03686277 -0.08156863 0.0447059 0.06980389 -0.08156863
-0.004705768 0.020392157 -0.09803922 -0.04235301 0.061176457 0.10196065 -0.078431375 -0.07450981
0.044705905 0.101960786 -0.06117645 -0.040784255 -0.020392083 -0.08156862 0.007843122 -0.101960756
0.028235354 -0.101960786 0.054117635 0.061176345 -0.08156863 0.0039215237 0.06509807 -0.07058824
0.061176516 0.06431363 -0.06666667 -0.08156863 0.061176512 0.040784333 -0.040784307 0.04862746
0.101960786 -0.08627451 -0.0611765 0.10196074 0.007843144 -0.07058824 0.04078426 0.061176397
-0.08156863 -0.007843107 -0.06823525 0.024313658 0.08156861 -0.057255015 0.003137216 0.06901966
-0.08156863 0.024313733 -0.101960786 0.04078432 0.08156868 2.2351742e-08 0.040784337 -0.020392098
0.028235413 -1.5646219e-07 -0.078431375 0.06117656 0.07764711 -0.08156863 -0.040784307 0.040784128
0.020392232 -0.061176457 0.0815685 0.08156861 -0.038431413 0.003921546 0.040784374 -0.050980393
-0.08156863 -0.09882352 0.08156857 0.07215689 -0.101960756 -0.04470601 -0.08941165 -0.008627519
0.03529413 0.020392224 -0.08156863 -8.195639e-08 0.055686258 -1.4901161e-08 -0.08156863 1.4901161e-08
0.101960786 -0.08156863 -2.2351742e-08 0.076862656 -0.0611765 -0.06117653 0.08156862 0.020392068
-0.061176382 0.04078444 0.073725395 -0.081568606 -0.020392075 0.10196074 0.061176438 -0.101960756
0.04078436 0.10196078 0.04078424 -0.101960786 0.101960786 0.10196076 0.034509793 -0.040784255
-0.101960786 0.024313584 0.101960786 -0.101960786 -0.08156852 0.026666664 -0.061176516 -0.09411768
0.06196066 -0.061176457 0.040784337 -0.07058824 -0.078431375 0.0611765 0.061176293 -0.07058824
-0.040784366 0.061176512 -0.020392276 -0.040784426 -0.040784314 -1.3411045e-07 -0.04470589 -0.08156882
0.0815686 0.04078418 -0.02039212 -0.08156863 0.101960786 -0.020392083 -0.007843241 0.101960786
-0.06117644 -0.101960786 0.101960674 -0.061176576 -0.08156858 -0.020392083 0.036862873 -0.010196067
0.014117457 0.040784277 -0.07058824 -0.08156863 0.061176512 -0.05490196 2.2351742e-08 0.020392038
0.101960786 -0.08156863 -9.685755e-08 0.061176352 -0.061176486 -0.101960786 -0.09411765 0.010195896
0.04078424 -0.09803945 0.044705927 0.101960786 -0.101960786 -0.101960756 -0.09411765 0.101960786
0.101960786 -0.085490264 -1.4901161e-08 -0.020392075 0.101960786 -0.08156863 -0.040784106 -0.07058837
00000000: d44d e73c 1a94 7abd 740d a7bd 740d a7bc
00000010: 2a94 7abd 1694 7abd 540d a7bc 3594 7a3d
00000020: 6c0d a7bc 730d a7bd 740d a73c 760d a73c
00000030: 740d a7bd 6880 00bc 5080 003c d1d0 d0bd
00000040: d1d0 d0bd cdd0 d0bd 6034 9abb 4ced 86bc
00000050: 2694 7abd d1d0 d0bd bcca 7dbd d1d0 d0bd
00000060: 305a 0dbc 9e90 90bd ccd0 d0bd 6d0d a7bd
00000070: ec4d e73c 540d a7bc 760d a7bd 700d a7bc
00000080: cbd0 d03d 740d a7bd 7a0d 273d 0000 20b3
00000090: 9190 90bd 740d a7bd 96ba ed3c b1b0 30bd
000000a0: 740d a7bd 830d a73d 3362 953d f1f0 70bd
000000b0: 0a0d a73c 7a0d 273d a07f 80bb 0000 c0b2
000000c0: b9b8 b8bd bcaa 5d3d 7c0d 273d 0000 c0b2
000000d0: 0000 c0b2 740d a7bd 3ced 063d 7c94 7abd
000000e0: 3e62 953d 4694 7abd 1e52 853d 740d a7bd
000000f0: d1d0 d0bd 3694 7a3d 760d 273d d1d0 d0bd
00000100: 0000 c0b2 6afd 16bd c3d0 d03d 6afd 16bd
00000110: 740d a7bd 891d 373d 58f5 8e3d 740d a7bd
00000120: d832 9abb 740d a73c c9c8 c8bd 5a7a 2dbd
00000130: 2a94 7a3d bfd0 d03d a1a0 a0bd 9998 98bd
00000140: 8a1d 373d d1d0 d03d 2894 7abd 640d 27bd
00000150: 4c0d a7bc 730d a7bd 7080 003c cdd0 d0bd
00000160: d44d e73c d1d0 d0bd 74aa 5d3d 0c94 7a3d
00000170: 740d a7bd 2080 803b 2352 853d 9190 90bd
00000180: 3a94 7a3d ddb6 833d 8988 88bd 740d a7bd
00000190: 3994 7a3d 790d 273d 720d 27bd 962d 473d
000001a0: d1d0 d03d b1b0 b0bd 3694 7abd cbd0 d03d
000001b0: 8880 003c 9190 90bd 650d 273d 1a94 7a3d
000001c0: 740d a7bd 6080 00bc ecbe 8bbd 702d c73c
000001d0: 720d a73d 3c84 6abd c099 4d3b 2e5a 8d3d
000001e0: 740d a7bd 982d c73c d1d0 d0bd 760d 273d
000001f0: 7b0d a73d 0000 c032 7a0d 273d 540d a7bc
00000200: f44d e73c 0000 28b4 a1a0 a0bd 4694 7a3d
00000210: 7305 9f3d 740d a7bd 720d 27bd 420d 273d
00000220: 9c0d a73c 2a94 7abd 630d a73d 720d a73d
00000230: 426a 1dbd 5080 803b 840d 273d d1d0 50bd
00000240: 740d a7bd fc63 cabd 6c0d a73d fec6 933d
00000250: cdd0 d0bd a61d 37bd 751d b7bd 705a 0dbc
00000260: 9490 103d 980d a73c 740d a7bd 0000 b0b3
00000270: 4617 643d 0000 80b2 740d a7bd 0000 8032
00000280: d1d0 d03d 740d a7bd 0000 c0b2 2b6a 9d3d
00000290: 3694 7abd 3e94 7abd 730d a73d 440d a73c
000002a0: 1694 7abd 960d 273d 57fd 963d 710d a7bd
000002b0: 480d a7bc cbd0 d03d 2594 7a3d cdd0 d0bd
000002c0: 800d 273d d0d0 d03d 600d 273d d1d0 d0bd
000002d0: d1d0 d03d ced0 d03d 245a 0d3d 640d 27bd
000002e0: d1d0 d0bd 482d c73c d1d0 d03d d1d0 d0bd
000002f0: 650d a7bd 0c74 da3c 3a94 7abd c5c0 c0bd
00000300: 76ca 7d3d 2a94 7abd 7a0d 273d 9190 90bd
00000310: a1a0 a0bd 3694 7a3d fe93 7a3d 9190 90bd
00000320: 820d 27bd 3994 7a3d b40d a7bc 920d 27bd
00000330: 740d 27bd 0000 10b4 861d 37bd 8e0d a7bd
00000340: 700d a73d 500d 273d 600d a7bc 740d a7bd
00000350: d1d0 d03d 4c0d a7bc f080 00bc d1d0 d03d
00000360: 2694 7abd d1d0 d0bd c2d0 d03d 4a94 7abd
00000370: 6d0d a7bd 4c0d a7bc 86fd 163d 680d 27bc
00000380: e84c 673c 6a0d 273d 9190 90bd 740d a7bd
00000390: 3994 7a3d e1e0 60bd 0000 c032 340d a73c
000003a0: d1d0 d03d 740d a7bd 0000 d0b3 0e94 7a3d
000003b0: 3294 7abd d1d0 d0bd c1c0 c0bd b00c 273c
000003c0: 600d 273d e8c8 c8bd 901d 373d d1d0 d03d
000003d0: d1d0 d0bd cdd0 d0bd c1c0 c0bd d1d0 d03d
000003e0: d1d0 d03d 8515 afbd 0000 80b2 480d a7bc
000003f0: d1d0 d03d 740d a7bd 3c0d 27bd a390 90bd
