defensePtqEval/UAPs/uqat_single/x_noisetr10000_w8a8_32.npy (npy, 12416 bytes, 1 tensors)

array f4 [1, 3, 32, 32]
00000000: 6c9a 4dbd 589a cdbc 689a cdbd 487a adbc
00000010: 487a adbc b81b 82bd 0cd7 23bd ce33 9abd
00000020: 8e3d d73d 8180 00be 589a cd3c d826 f43c
00000030: 64fd 163d 889a cdbc 749a 4dbd da4b b2bd
00000040: 6a9a cdbd 589a cd3c 740d 273d b033 1abc
00000050: d4d0 50bd 7f80 00be 689a cd3c d233 9abd
00000060: 889a cdbc 489a cdbc ca33 9abd 949a 4dbd
00000070: 689a cd3c de33 9abd 889a cdbc 2e9a cd3d
00000080: ca33 9abd 8180 00be 24ed 063d 8180 003e
00000090: fef8 f8bd 8180 00be a4b0 303d 589a cd3c
000000a0: be23 8abd b89a cd3c 5c9a 4d3d 689a cdbd
000000b0: c6d0 d03d 4ced 063d 44ed 063d 4ced 063d
000000c0: 285a 8dbc ba23 8abd 249a 4d3d 20e7 b3bb
000000d0: 649a 4dbd 1074 5abc c62b 92bd 0000 4033
000000e0: 0000 80b2 5c07 54bd f4f0 70bd 5074 5abc
000000f0: b89a cdbc 6c9a 4dbd 6c9a 4dbd 089a cd3c
00000100: 8180 00be ce33 9abd ce33 9abd f073 5abc
00000110: 3074 5abc cac8 c8bd 8235 cf3d 549a 4d3d
00000120: 689a cdbc 3894 fa3c 4c9a 4d3d 2a52 85bd
00000130: 1807 d43c dee8 e83d 309a cd3c 7c1d 373d
00000140: 689a cdbd ca33 9abd 9c2d 473d 849a 4dbd
00000150: 7c9a 4dbd 7c0d 273d 689a cdbc 629a cdbd
00000160: 7c9a 4dbd 0000 e0b3 5c27 74bd 0000 50b4
00000170: 9c90 103d 589a cd3c 749a 4dbd 789a cd3c
00000180: 889a cdbc aeb0 b0bd 789a cdbc 8180 00be
00000190: f073 5abc 8180 003e 8180 003e d433 9abd
000001a0: b03d 57bd 8180 003e c933 9a3d 8180 00be
000001b0: 8180 00be 0000 00b4 8025 bf3d 689a cdbd
000001c0: f073 5abc ce33 9abd 0000 a0b3 289a cdbc
000001d0: 6e9a cdbd 4417 64bd 5e9a cdbd 4e9a cd3d
000001e0: 6a9a cdbd 689a cdbd 649a 4dbd 549a 4dbd
000001f0: 489a cd3c b49a 4dbd d233 9abd 689a cdbc
00000200: c62b 92bd 7c9a 4d3d 0000 40b3 749a 4dbd
00000210: 689a cdbc 8180 00be 689a cd3c d033 9abd
00000220: c0c0 c03d 8180 003e 812d c73d 8180 003e
00000230: 6c9a 4dbd 3c17 e4bd 0074 5a3d 009a cdba
00000240: d233 9abd d233 9abd 942d 473d 704d 673c
00000250: 8180 00be 604d e7bb 8180 00be 0000 8032
00000260: de33 9a3d 689a cdbd 6a9a cd3d 549a 4d3d
00000270: 5c9a cd3d 285a 8dbc 649a 4dbd 587a adbc
00000280: 689a cdbd 0000 e0b3 385a 8dbc 8180 00be
00000290: b24d e7bd a8ba edbc ca33 9abd 609a cdbc
000002a0: 8180 003e 7c80 003e 489a cdbc 7c9a 4dbd
000002b0: 6a9a cd3d 80a0 a03c c833 9a3d 709a cd3d
000002c0: be55 efbd 6a9a cdbd 569a cd3d 346a 1dbd
000002d0: 9c2d 473d 489a cd3c c233 9a3d 8180 00be
000002e0: aa1b 823d 740d 273d d433 9a3d 8180 00be
000002f0: d89a cdbc be23 8abd 0cd7 23bd 8180 00be
00000300: c233 9abd 5ced 063d 1c27 743d 569a cd3d
00000310: 789a cd3c 789a cdbc 689a cd3c 689a cd3d
00000320: f853 babd 669a cdbd 105a 0d3c 6c9a 4dbd
00000330: 2494 7a3d 509a cd3d 689a cdbd 489a 4d3d
00000340: 8180 003e 6e9a cdbd 0000 8032 06d7 a3bd
00000350: d633 9a3d 5e9a cd3d d233 9abd c633 9a3d
00000360: 649a 4dbd 669a cdbd f843 2a3d 889a cdbc
00000370: 5c9a 4d3d 8180 00be 7f80 00be 682d c73c
00000380: 285a 8dbc 6aba ed3d 8c9a 4dbd 389a cd3c
00000390: 6a9a cd3d 629a cdbd 8180 00be c833 9a3d
000003a0: 609a cdbc 009a cd3a 70ba ed3c b233 9abd
000003b0: 409a cdbc 689a cdbd d033 9abd 9033 9a3d
000003c0: 7e80 803d 749a 4d3d 8180 00be 22f7 c3bd
000003d0: 0000 80b2 589a cd3c 7cba 6d3d 589a cd3d
000003e0: 6a9a cdbd b833 9a3d 2cff cbbd d0c0 403c
000003f0: 587a adbc ca33 9abd 7c9a 4dbd a09c cdbb
-0.050196096 -0.02509801 -0.10039216 -0.021176472 -0.021176472 -0.06352943 -0.040000007 -0.07529412
0.105097875 -0.1254902 0.02509801 0.029803678 0.036862746 -0.0250981 -0.050196126 -0.08705874
-0.10039218 0.02509801 0.040784314 -0.009411737 -0.050980404 -0.12549017 0.02509804 -0.07529415
-0.0250981 -0.025097981 -0.07529409 -0.050196245 0.02509804 -0.07529424 -0.0250981 0.10039173
-0.07529409 -0.1254902 0.032941 0.1254902 -0.121568665 -0.1254902 0.043137208 0.02509801
-0.067450985 0.02509819 0.050196037 -0.10039216 0.101960704 0.032941148 0.032941118 0.032941148
-0.017254904 -0.067450956 0.050195828 -0.0054901987 -0.050196066 -0.0133333355 -0.07137255 4.4703484e-08
-1.4901161e-08 -0.05176483 -0.05882354 -0.013333395 -0.02509819 -0.050196096 -0.050196096 0.025097862
-0.1254902 -0.07529412 -0.07529412 -0.013333306 -0.013333365 -0.098039225 0.10117628 0.050196007
-0.02509804 0.030588254 0.050195977 -0.06509812 0.025882289 0.11372541 0.025097936 0.044705853
-0.10039216 -0.07529409 0.04862748 -0.050196186 -0.050196156 0.040784344 -0.02509804 -0.10039212
-0.050196156 -1.0430813e-07 -0.05960785 -1.937151e-07 0.03529416 0.02509801 -0.050196126 0.02509807
-0.0250981 -0.08627449 -0.02509807 -0.1254902 -0.013333306 0.1254902 0.1254902 -0.07529417
-0.052549064 0.1254902 0.075294085 -0.1254902 -0.1254902 -1.1920929e-07 0.093333244 -0.10039216
-0.013333306 -0.07529412 -7.4505806e-08 -0.025097921 -0.10039221 -0.05568625 -0.10039209 0.10039197
-0.10039218 -0.10039216 -0.050196066 -0.050196007 0.025097981 -0.050196365 -0.07529415 -0.02509804
-0.07137255 0.050196156 -4.4703484e-08 -0.050196126 -0.02509804 -0.1254902 0.02509804 -0.07529414
0.09411764 0.1254902 0.09725476 0.1254902 -0.050196096 -0.11137244 0.053333282 -0.0015686154
-0.07529415 -0.07529415 0.04862745 0.014117584 -0.1254902 -0.0070587844 -0.1254902 1.4901161e-08
0.07529424 -0.10039216 0.10039218 0.050196007 0.10039207 -0.017254904 -0.050196066 -0.021176502
-0.10039216 -1.0430813e-07 -0.017254934 -0.1254902 -0.11294116 -0.029019669 -0.07529409 -0.025098026
0.1254902 0.12549013 -0.025097981 -0.050196156 0.10039218 0.019607782 0.07529408 0.10039222
-0.11686276 -0.10039218 0.10039203 -0.03843136 0.04862748 0.025097981 0.07529403 -0.1254902
0.06352933 0.040784314 0.07529417 -0.1254902 -0.02509825 -0.067450985 -0.040000007 -0.1254902
-0.07529403 0.032941207 0.05960761 0.10039203 0.02509807 -0.02509807 0.02509804 0.10039216
-0.09098047 -0.10039215 0.00862743 -0.050196096 0.061176434 0.100391984 -0.10039216 0.050195962
0.1254902 -0.10039221 1.4901161e-08 -0.07999997 0.07529418 0.10039209 -0.07529415 0.07529406
-0.050196066 -0.10039215 0.041568726 -0.0250981 0.050196037 -0.1254902 -0.12549017 0.024313644
-0.017254904 0.11607821 -0.050196216 0.025097951 0.10039218 -0.10039212 -0.1254902 0.07529408
-0.025098026 0.0015686154 0.029019564 -0.07529391 -0.025097966 -0.10039216 -0.07529414 0.07529366
0.06274508 0.050196126 -0.1254902 -0.09568621 -1.4901161e-08 0.02509801 0.058039173 0.10039204
-0.10039218 0.07529396 -0.099607795 0.01176472 -0.021176502 -0.07529409 -0.050196156 -0.0062747747
