defensePtqEval/UAPs/uqat_single/x_noisetr10000_w1a1_4.npy (npy, 12416 bytes, 1 tensors)

array f4 [1, 3, 32, 32]
000000 80 80 80 bc 00 00 00 00 00 34 1a bc 80 99 cd 3b
       -0.015686274 0.0 -0.009411812 0.006274402
000010 e0 33 1a 3c 00 34 1a 3c a0 33 1a bc 80 9b 4d bb
       0.009411782 0.009411812 -0.009411722 -0.0031373203
000020 e0 33 1a bc 80 80 80 bc a0 c0 40 3c a0 9a 4d bc
       -0.009411782 -0.015686274 0.011764675 -0.0125490725
000030 60 9a 4d 3c 81 80 80 bc 81 80 80 bc e0 33 1a bc
       0.012549013 -0.015686275 -0.015686275 -0.009411782
000040 b0 9a cd 3b 98 33 1a 3c b0 33 9a 3b 60 9b 4d bb
       0.0062745437 0.009411715 0.0047058687 -0.0031373128
000050 e0 e6 33 3c 60 99 4d 3c 00 00 c0 b2 e8 33 1a bc
       0.010980338 0.0125487745 -2.2351742e-08 -0.0094117895
000060 50 33 9a bb 30 9a cd 3b 80 99 4d 3b 80 9a 4d 3b
       -0.004705824 0.006274484 0.003137201 0.0031372607
000070 d0 98 cd bb e6 33 1a bc 40 97 cd ba 00 00 d0 33
       -0.00627432 -0.009411788 -0.0015685335 9.685755e-08
000080 c0 33 1a bc 00 9d 4d bb 80 9a 4d bc 00 9b cd 3b
       -0.009411752 -0.0031374097 -0.012549043 0.006274581
000090 40 99 cd bb 80 99 cd bb a0 34 1a bc 40 9a cd bb
       -0.0062743723 -0.006274402 -0.009411961 -0.0062744915
0000a0 a0 9a 4d bc 00 9c 4d 3b 80 9b 4d 3b 80 99 4d 3b
       -0.0125490725 0.00313735 0.0031373203 0.003137201
0000b0 80 9a 4d bb 48 80 80 3c 80 9b 4d 3b a0 33 1a 3c
       -0.0031372607 0.01568617 0.0031373203 0.009411722
0000c0 80 97 4d bb 98 34 1a 3c 00 00 c0 b2 30 34 9a 3b
       -0.0031370819 0.009411953 -2.2351742e-08 0.0047059283
0000d0 18 e7 33 3c d0 33 9a 3b 60 9a 4d bb 40 9b cd 3b
       0.01098039 0.0047058836 -0.0031372532 0.0062746108
0000e0 58 34 1a bc 40 9a cd bb 80 96 4d 3b 80 9b 4d bb
       -0.009411894 -0.0062744915 0.0031370223 -0.0031373203
0000f0 81 80 80 bc 98 9a 4d 3c 00 00 b0 33 d0 33 9a 3b
       -0.015686275 0.012549065 8.195639e-08 0.0047058836
000100 00 9b cd bb 00 9a cd 3a 00 9a 4d 3b 00 98 cd bb
       -0.006274581 0.0015686154 0.0031372309 -0.0062742233
000110 80 9e 4d bb 40 9d cd 3b 00 00 00 b3 80 99 4d 3b
       -0.003137499 0.006274849 -2.9802322e-08 0.003137201
000120 00 99 4d 3b 00 00 00 34 00 99 4d bb a0 33 1a 3c
       0.0031371713 1.1920929e-07 -0.0031371713 0.009411722
000130 00 96 4d 3a c0 9a cd 3b 80 33 1a bb a0 9b 4d bb
       0.0007842481 0.006274551 -0.0023529232 -0.0031373277
000140 98 9a 4d bc d8 9a 4d bc b0 9a cd bb 81 80 80 3c
       -0.012549065 -0.012549125 -0.0062745437 0.015686275
000150 00 00 c0 b2 60 9c 4d bb 50 99 cd 3b 50 e7 b3 bb
       -2.2351742e-08 -0.0031373724 0.00627438 -0.005490221
000160 60 9a 4d bb e0 33 1a 3c a0 9a 4d bc 28 34 1a 3c
       -0.0031372532 0.009411782 -0.0125490725 0.009411849
000170 d0 98 cd 3b 81 80 80 3c e8 33 1a bc 60 97 4d bb
       0.00627432 0.015686275 -0.0094117895 -0.0031370744
000180 00 9a 4d bb 80 9a 4d 3c 81 80 80 3c 00 99 4d 3b
       -0.0031372309 0.012549043 0.015686275 0.0031371713
000190 60 9a 4d bc 00 00 00 33 e0 33 1a bc 40 74 5a 3c
       -0.012549013 2.9802322e-08 -0.009411782 0.01333338
0001a0 80 9a 4d bc 80 9a 4d bc 81 80 80 bc 00 9a 4d 3b
       -0.012549043 -0.012549043 -0.015686275 0.0031372309
0001b0 80 e6 b3 bb 00 33 1a bb 00 33 1a bb 20 34 1a 3c
       -0.005490124 -0.0023528934 -0.0023528934 0.009411842
0001c0 30 9a cd bb 9a 9a 4d bc 34 9b cd bb d0 9a cd bb
       -0.006274484 -0.012549067 -0.006274605 -0.0062745586
0001d0 e8 99 4d bc 96 9a 4d 3c 9a 33 1a bc 2c 80 80 3c
       -0.012548901 0.012549063 -0.009411717 0.015686117
0001e0 cc 98 cd bb 98 9a 4d 3c 50 9a cd bb 81 80 80 3c
       -0.0062743183 0.012549065 -0.006274499 0.015686275
0001f0 00 00 cc b3 90 98 cd bb e0 9e 4d 3b 00 00 d0 33
       -9.49949e-08 -0.0062742904 0.0031375214 9.685755e-08
000200 00 9c 4d 3b 00 00 00 00 81 80 80 3c 00 00 00 00
       0.00313735 0.0 0.015686275 0.0
000210 80 9a cd 3b 00 00 40 b4 80 33 1a 3c 00 34 9a 3b
       0.0062745214 -1.7881393e-07 0.009411693 0.004705906
000220 00 9b 4d 3b 80 9a cd bb 00 9b cd bb 00 9b cd bb
       0.0031372905 -0.0062745214 -0.006274581 -0.006274581
000230 00 9a 4d bb 00 9b 4d bb 80 9a 4d bc 00 99 4d bb
       -0.0031372309 -0.0031372905 -0.012549043 -0.0031371713
000240 81 80 80 3c 38 33 1a 3c 81 80 80 3c a0 9b 4d bb
       0.015686275 0.009411626 0.015686275 -0.0031373277
000250 60 98 4d bb 81 80 80 3c 00 00 00 b2 68 9a 4d bc
       -0.003137134 0.015686275 -7.450581e-09 -0.01254902
000260 f8 33 1a bc a0 9a 4d 3c 60 9c 4d 3b 00 00 20 b3
       -0.009411804 0.0125490725 0.0031373724 -3.7252903e-08
000270 34 9a cd bb bc 33 1a 3c 70 9b cd bb 00 00 90 33
       -0.006274486 0.0094117485 -0.006274633 6.7055225e-08
000280 c0 e6 33 3c 00 9c 4d bb 00 00 00 34 80 9a cd bb
       0.010980308 -0.00313735 1.1920929e-07 -0.0062745214
000290 00 9b 4d 3b 80 9a cd 3b 40 33 1a bc 80 4e e7 3b
       0.0031372905 0.0062745214 -0.009411633 0.0070589185
0002a0 81 80 80 bc 80 9a cd bb 80 9a cd bb 80 98 cd bb
       -0.015686275 -0.0062745214 -0.0062745214 -0.006274283
0002b0 80 9a cd bb 68 9a 4d bc 20 9b 4d bb 38 9b 4d 3c
       -0.0062745214 -0.01254902 -0.003137298 0.012549214
0002c0 00 00 00 32 78 33 1a 3c 00 00 f0 b3 20 e7 33 3c
       7.450581e-09 0.009411685 -1.1175871e-07 0.010980397
0002d0 81 80 80 bc 00 9b 4d 3b 00 9a 4d bb e0 93 4d bb
       -0.015686275 0.0031372905 -0.0031372309 -0.0031368658
0002e0 88 34 1a bc 00 9a 4d bb 81 80 80 bc 1a 9a 4d bc
       -0.0094119385 -0.0031372309 -0.015686275 -0.012548948
0002f0 8c 9a cd bb 98 9e 4d bb 68 9a 4d bc 5c 80 80 bc
       -0.006274527 -0.0031375047 -0.01254902 -0.015686207
000300 00 9b 4d 3b 80 9a 4d 3c 00 9b cd 3b f0 33 1a bc
       0.0031372905 0.012549043 0.006274581 -0.009411797
000310 b0 99 4d 3c c0 9a 4d 3c 80 33 1a 3c 70 9a 4d bc
       0.012548849 0.012549102 0.009411693 -0.012549028
000320 00 00 00 34 81 80 80 3c 40 33 1a 3c 00 99 cd bb
       1.1920929e-07 0.015686275 0.009411633 -0.0062743425
000330 c8 33 1a bc 00 00 40 34 81 80 80 3c 00 00 08 34
       -0.00941176 1.7881393e-07 0.015686275 1.2665987e-07
000340 c8 33 1a 3c 78 9a 4d 3c 90 9a cd 3b 81 80 80 3c
       0.00941176 0.012549035 0.006274529 0.015686275
000350 c0 32 1a 3c 00 00 00 b4 e0 9d 4d bb 38 9a 4d bc
       0.009411514 -1.1920929e-07 -0.0031374618 -0.012548976
000360 e0 9a 4d 3b e0 9a 4d 3b 58 9a 4d bc 00 00 20 33
       0.003137283 0.003137283 -0.012549005 3.7252903e-08
000370 81 80 80 3c 00 00 20 b3 00 00 f0 33 b8 33 1a 3c
       0.015686275 -3.7252903e-08 1.1175871e-07 0.009411745
000380 00 34 1a bc a0 9a cd 3b 00 00 80 32 20 9b cd bb
       -0.009411812 0.0062745363 1.4901161e-08 -0.006274596
000390 81 80 80 bc 90 9a 4d bc c0 9a 4d bb c0 98 4d bb
       -0.015686275 -0.012549058 -0.0031372756 -0.0031371564
0003a0 60 9a cd bb 00 9a 4d bc c0 33 1a 3c 28 9a 4d bc
       -0.0062745064 -0.0125489235 0.009411752 -0.012548961
0003b0 20 99 4d bb a0 9a 4d 3c a0 9a 4d 3c 00 00 00 33
       -0.0031371787 0.0125490725 0.0125490725 2.9802322e-08
0003c0 30 9b cd bb 81 80 80 bc 98 9a 4d bc 50 9a cd 3b
       -0.0062746033 -0.015686275 -0.012549065 0.006274499
0003d0 58 33 1a 3c f8 99 4d bc 94 9a 4d 3c 98 33 1a bc
       0.009411655 -0.012548916 0.012549061 -0.009411715
0003e0 30 9a cd 3b d0 99 cd bb 20 9c 4d 3b 00 00 d0 b3
       0.006274484 -0.0062744394 0.0031373575 -9.685755e-08
0003f0 18 33 1a 3c 81 80 80 3c e0 9b 4d 3b 68 9a 4d bc
       0.009411596 0.015686275 0.0031373426 -0.01254902
