defensePtqEval/UAPs/uqat_single/x_noisetst10000_w8a8_32.npy (npy, 12416 bytes, 1 tensors)

array f4 [1, 3, 32, 32]
0	0xbccd9a80	-0.025098085
1	0xbd4d9a70	-0.05019611
2	0x3db24bd0	0.08705866
3	0x3cedba80	0.029019594
4	0x3e008081	0.1254902
5	0x3cedba80	0.029019594
6	0x3ccd9a60	0.025098026
7	0x3d6dba80	0.05803919
8	0x3d6dba40	0.05803895
9	0x3de27c00	0.110588074
10	0xbcad7a40	-0.021176457
11	0xbd4d9a70	-0.05019611
12	0xbe008080	-0.12549019
13	0xbd4d9a70	-0.05019611
14	0x3da23bd0	0.079215646
15	0xbe008081	-0.1254902
16	0xbcad7a40	-0.021176457
17	0xbe008081	-0.1254902
18	0xbe008080	-0.12549019
19	0xbd540730	-0.051764667
20	0xbccd9a60	-0.025098026
21	0x3c93c6c0	0.018039107
22	0x3da0a078	0.07843107
23	0xbccd9a60	-0.025098026
24	0xbccd9a60	-0.025098026
25	0xbd3d8a50	-0.046274483
26	0xbccd9a60	-0.025098026
27	0x3cedba80	0.029019594
28	0x3ccd9a60	0.025098026
29	0x3cedba80	0.029019594
30	0x3d270d70	0.0407843
31	0x3ccd9a60	0.025098026
32	0x3c270d40	0.01019603
33	0xbdcd9a68	-0.10039216
34	0x3dcd9a68	0.10039216
35	0x3cedba80	0.029019594
36	0x3c742680	0.014901757
37	0xbc0d5a40	-0.008627474
38	0x3d0a2360	0.033725142
39	0xbd7a9440	-0.06117654
40	0xbd9a33d0	-0.07529414
41	0xbe008081	-0.1254902
42	0x3d9f0568	0.07764703
43	0x3d16fd60	0.03686273
44	0xbd9a33c8	-0.07529408
45	0xbdcd9a68	-0.10039216
46	0xbd9a33d0	-0.07529414
47	0xbccd9a80	-0.025098085
48	0x3dcd9a30	0.100391746
49	0xbccd9a80	-0.025098085
50	0xb3800000	-5.9604645e-08
51	0xbc0d5a80	-0.008627534
52	0xbd9a33d0	-0.07529414
53	0x3d2d7a00	0.042352676
54	0x3d7a93f0	0.06117624
55	0x3dcd9a58	0.10039204
56	0xbc8d5a20	-0.017254889
57	0xbd540740	-0.051764727
58	0xbe008081	-0.1254902
59	0x3d674db0	0.056470573
60	0xbccd9a20	-0.025097907
61	0x3d93c6f8	0.07215685
62	0x3c0d59c0	0.008627355
63	0xbe008080	-0.12549019
64	0xbccd9a68	-0.02509804
65	0x3d9a33c8	0.07529408
66	0xbc7427c0	-0.014902055
67	0xbe008081	-0.1254902
68	0xbe008081	-0.1254902
69	0xbc4d9a80	-0.012549043
70	0xbe008081	-0.1254902
71	0x3db3e708	0.087843
72	0xbdcd9a68	-0.10039216
73	0xbccd9a60	-0.025098026
74	0xbc0d5a40	-0.008627474
75	0xbce0e0e0	-0.027450979
76	0xbccd9a60	-0.025098026
77	0xbccd9a60	-0.025098026
78	0x3e008074	0.12549001
79	0x3d9a33c0	0.07529402
80	0x3b1a3300	0.0023528934
81	0xbccd9a60	-0.025098026
82	0xbe008080	-0.12549019
83	0x3df75da0	0.120784044
84	0x3d9a33c8	0.07529408
85	0xbdcd9a68	-0.10039216
86	0xbd9a33c8	-0.07529408
87	0x3da3d708	0.07999998
88	0x3e008081	0.1254902
89	0x3d43f720	0.0478431
90	0xbd2a43d0	-0.041568577
91	0xbd9a33c8	-0.07529408
92	0xb4400000	-1.7881393e-07
93	0xbd5a7410	-0.053333342
94	0xbccd9a80	-0.025098085
95	0xbe008081	-0.1254902
96	0x3ccd9a64	0.025098033
97	0xbc7427b0	-0.01490204
98	0xbdf0f0f1	-0.11764706
99	0x3d95621a	0.07294102
100	0xbdcd9a68	-0.10039216
101	0x3d109090	0.035294116
102	0x3c742740	0.014901936
103	0x3ccd9a40	0.025097966
104	0xbe008081	-0.1254902
105	0xbdc59258	-0.096470535
106	0x34000000	1.1920929e-07
107	0x3d06ed30	0.032941043
108	0xbe008081	-0.1254902
109	0xbccd9a80	-0.025098085
110	0xb4400000	-1.7881393e-07
111	0x3d4d9a30	0.050195873
112	0xbcad7a40	-0.021176457
113	0x3ccd99e0	0.025097787
114	0x3ccd9a20	0.025097907
115	0x3e008081	0.1254902
116	0x3c33e6c0	0.010980308
117	0xbdcd9a68	-0.10039216
118	0xbe008081	-0.1254902
119	0xbd9a33c8	-0.07529408
120	0x3d9a33c8	0.07529408
121	0xbd1d6a50	-0.038431466
122	0x3e008080	0.12549019
123	0xbd9a33d0	-0.07529414
124	0x3ccd9a40	0.025097966
125	0x3b9a3380	0.0047058463
126	0xbd4d9a70	-0.05019611
127	0x3db24be0	0.08705878
128	0x3ce0e0d8	0.027450964
129	0x3e008081	0.1254902
130	0x3d4d9a2a	0.05019585
131	0x3db71d75	0.08941165
132	0x3d4d9a12	0.05019576
133	0xbd20a0bc	-0.03921579
134	0x3db71d65	0.089411534
135	0x3ccd9a68	0.02509804
136	0xbccd9a58	-0.02509801
137	0xbd60e0d0	-0.054901898
138	0x3d9a33c8	0.07529408
139	0xbe008081	-0.1254902
140	0xbdcd9a70	-0.10039222
141	0xbb9a3580	-0.0047060847
142	0xbe008081	-0.1254902
143	0x3d40c0a0	0.0470587
144	0xbccd9a60	-0.025098026
145	0xbccd9ac0	-0.025098205
146	0xbca70d80	-0.02039218
147	0x3dcd9a68	0.10039216
148	0xbcda7420	-0.0266667
149	0x33800000	5.9604645e-08
150	0xbdcd9a68	-0.10039216
151	0xbe008078	-0.12549007
152	0x3dcd9a68	0.10039216
153	0xbe008081	-0.1254902
154	0xbd9a33c8	-0.07529408
155	0xbe00807c	-0.12549013
156	0x3dfdca90	0.12392151
157	0xbe008081	-0.1254902
158	0x3c674d40	0.014117539
159	0x3d956220	0.072941065
160	0xbe008081	-0.1254902
161	0x3c007fe8	0.007842995
162	0x3d6dba4a	0.058038987
163	0x3d9a33ad	0.075293876
164	0x3d4d9a6a	0.05019609
165	0xbccd9a88	-0.0250981
166	0x3d6a840a	0.05725483
167	0x3e008081	0.1254902
168	0xbd9a33ce	-0.07529412
169	0xbd9a33ce	-0.07529412
170	0xbccd9a68	-0.02509804
171	0x3b808080	0.0039215684
172	0x3ccd9a60	0.025098026
173	0xbe008081	-0.1254902
174	0xbd7a9430	-0.06117648
175	0x3ccd9a40	0.025097966
176	0x3d9a33c8	0.07529408
177	0x3ccd9a40	0.025097966
178	0x3d13c6f0	0.036078393
179	0xbccd9aa0	-0.025098145
180	0xbe00807c	-0.12549013
181	0xbdcd9a68	-0.10039216
182	0x3de74da8	0.11294109
183	0xbda8a8a8	-0.082352936
184	0x3cb3e6e0	0.021960676
185	0xbd4d9a70	-0.05019611
186	0x3d9a33c8	0.07529408
187	0xbccd9a60	-0.025098026
188	0x3ccd9a60	0.025098026
189	0x3d9a33d0	0.07529414
190	0x3dcd9a60	0.1003921
191	0x3dcd9a68	0.10039216
192	0xbd4d9a6c	-0.050196096
193	0xbd70f0f1	-0.05882353
194	0xbdcd9a68	-0.10039216
195	0x3dd73d9a	0.105097964
196	0xb3500000	-4.8428774e-08
197	0x3d5daa74	0.054117635
198	0x3d4d9a5a	0.05019603
199	0x3da23ba6	0.07921533
200	0xbccd9a79	-0.025098072
201	0x3c00804c	0.007843088
202	0x3c008090	0.007843152
203	0xbd4d9a74	-0.050196126
204	0x3ccd9a00	0.025097847
205	0xbbb3e700	-0.005490184
206	0x3dcd9a60	0.1003921
207	0x3d9a33c0	0.07529402
208	0x3d4d9a50	0.050195992
209	0x3dcd9a6c	0.10039219
210	0x3d2a43d0	0.041568577
211	0xbdcd9a68	-0.10039216
212	0xbccd9a60	-0.025098026
213	0x3dcd9a68	0.10039216
214	0xbdcd9a68	-0.10039216
215	0xbd4d9a70	-0.05019611
216	0xbc0d5a40	-0.008627474
217	0x3d9a33d0	0.07529414
218	0xbccd9a60	-0.025098026
219	0xbcba5420	-0.022745192
220	0xb3800000	-5.9604645e-08
221	0xbe008081	-0.1254902
222	0xbccd9a60	-0.025098026
223	0xbccd9a60	-0.025098026
224	0xb3500000	-4.8428774e-08
225	0x3c674d4c	0.01411755
226	0xbd9a33c6	-0.07529406
227	0xbd9a33ce	-0.07529412
228	0x3d40c0b3	0.047058772
229	0x3d5daa4b	0.054117482
230	0xbd888889	-0.06666667
231	0xbd1a33d4	-0.037647083
232	0xbd109091	-0.03529412
233	0xbd956236	-0.07294123
234	0x3da23bd4	0.079215676
235	0xb2800000	-1.4901161e-08
236	0x3cb3e708	0.02196075
237	0x3dd40738	0.10352939
238	0x33800000	5.9604645e-08
239	0xbd4d9a74	-0.050196126
240	0xbdcd9a6a	-0.10039218
241	0x3d4d9a52	0.050196
242	0xbccd9a68	-0.02509804
243	0xbd641754	-0.05568631
244	0xbcf42748	-0.029803887
245	0x3d9a33ca	0.07529409
246	0xbccd9aa8	-0.02509816
247	0x3c674d80	0.0141175985
248	0x3e008076	0.12549004
249	0x3d9a33c0	0.07529402
250	0xbd9a33d0	-0.07529414
251	0xbe008081	-0.1254902
252	0x3dcd9a50	0.100391984
253	0xbd9a33c0	-0.07529402
254	0xbd9a33d0	-0.07529414
255	0x3ccd9a60	0.025098026
