defensePtqEval/UAPs/uqat_single/x_noisetst10000_w3a2_32.npy (npy, 12416 bytes, 1 tensors)

array f4 [1, 3, 32, 32]
000000 66 9a cd bd 80 1d 37 3d 81 80 00 be 42 72 a5 bd
       -0.10039215 0.044705868 -0.1254902 -0.080784336
000010 a8 9a cd bc 89 88 88 bd 92 2d c7 3d ca 33 9a bd
       -0.02509816 -0.06666667 0.09725489 -0.07529409
000020 68 9a cd bc 52 ed 86 bd 50 8a 3d 3d 68 0d a7 bc
       -0.02509804 -0.06588234 0.046274483 -0.020392135
000030 50 9a cd 3c 00 00 40 b3 ca 33 9a bd 66 9a cd bd
       0.025097996 -4.4703484e-08 -0.07529409 -0.10039215
000040 d2 33 9a bd 44 7a 2d 3d 00 00 80 b3 81 80 00 3e
       -0.07529415 0.04235293 -5.9604645e-08 0.1254902
000050 60 9a 4d 3d 60 9a 4d bd d2 33 9a bd 80 80 80 bb
       0.05019605 -0.05019605 -0.07529415 -0.0039215684
000060 d2 33 9a bd 00 00 80 b2 64 9a 4d 3d 28 5a 8d 3c
       -0.07529415 -1.4901161e-08 0.050196066 0.017254904
000070 6c 9a 4d bd 28 5a 8d bc a0 80 80 bb d2 33 9a bd
       -0.050196096 -0.017254904 -0.0039215833 -0.07529415
000080 a0 34 9a bb c0 99 4d 3b 78 ba ed 3c c8 33 9a 3c
       -0.0047059804 0.003137216 0.02901958 0.01882352
000090 74 9a 4d bd ec b6 03 bd 22 ef bb 3d 68 9a 4d 3d
       -0.050196126 -0.03215687 0.0917647 0.05019608
0000a0 78 80 80 bc 7b 80 00 3e 6a 9a cd 3d c6 33 9a 3d
       -0.015686259 0.12549011 0.10039218 0.07529406
0000b0 28 5a 8d bc 81 80 00 3e 8a 25 bf bd e4 e0 60 bd
       -0.017254904 0.1254902 -0.09333332 -0.054901972
0000c0 2e f7 c3 3d 44 fd 16 bd 1c 84 6a 3d 1e 52 85 3d
       0.0956863 -0.036862627 0.057254896 0.06509803
0000d0 7f 80 00 3e 70 9a 4d 3d 4c 9a 4d 3d 20 c1 40 bc
       0.12549017 0.05019611 0.050195977 -0.011764795
0000e0 50 5a 0d bc e0 e6 b3 bb 60 80 80 bb a6 23 8a 3d
       -0.008627489 -0.005490169 -0.0039215535 0.06745081
0000f0 68 9a cd bc a0 80 80 bb 69 9a cd 3d 78 80 80 bc
       -0.02509804 -0.0039215833 0.10039217 -0.015686259
000100 78 9a cd 3c ce 33 9a bd 72 0d a7 bd 06 74 da 3c
       0.02509807 -0.07529412 -0.08156861 0.026666652
000110 c2 33 9a 3d 81 80 00 3e b8 c0 c0 bc 62 fd 96 bd
       0.07529403 0.1254902 -0.023529395 -0.07372548
000120 4c 9a 4d 3d 78 80 80 bc 22 52 85 bd 34 6a 1d 3d
       0.050195977 -0.015686259 -0.06509806 0.03843136
000130 b0 4d 67 bc 00 00 80 b2 08 c7 93 3c 5e 9a cd bd
       -0.014117643 -1.4901161e-08 0.018039241 -0.10039209
000140 78 27 f4 3c cc 33 9a 3d 64 9a 4d bd ba 23 8a bd
       0.029803976 0.07529411 -0.050196066 -0.067450956
000150 1a 52 85 3d 81 80 00 3e 60 9a 4d 3d 00 35 9a bb
       0.065098 0.1254902 0.05019605 -0.004706025
000160 70 0d 27 3d 60 80 80 bb 60 80 80 bb a0 80 80 bb
       0.0407843 -0.0039215535 -0.0039215535 -0.0039215833
000170 be 33 9a 3d 80 ba ed 3c 70 aa 5d bd 80 80 80 bb
       0.075294 0.029019594 -0.05411762 -0.0039215684
000180 52 fd 16 3d 00 00 a0 b3 00 00 a8 b3 00 00 40 33
       0.03686268 -7.4505806e-08 -7.8231096e-08 4.4703484e-08
000190 81 80 00 3e 28 9a cd 3c 7d 80 00 be 5c aa 5d 3d
       0.1254902 0.025097921 -0.12549014 0.054117545
0001a0 d8 43 aa 3d 80 80 80 bc 88 80 80 bc d8 33 1a 3d
       0.083137214 -0.015686274 -0.015686288 0.0376471
0001b0 81 80 00 3e 78 9a cd 3c 00 00 00 00 66 80 00 3e
       0.1254902 0.02509807 0.0 0.1254898
0001c0 60 9a cd bd 10 e7 b3 3d c8 33 9a bd 81 80 00 3e
       -0.1003921 0.08784306 -0.07529408 0.1254902
0001d0 58 9a cd bc 81 80 00 3e 81 80 00 3e 70 9a 4d bd
       -0.02509801 0.1254902 0.1254902 -0.05019611
0001e0 00 00 00 00 6a 9a cd bd 58 8a 3d 3d 81 80 00 be
       0.0 -0.10039218 0.046274513 -0.1254902
0001f0 38 9a cd 3c 81 80 00 3e 00 e7 33 bc 5c 9a 4d bd
       0.025097951 0.1254902 -0.010980368 -0.050196037
000200 28 9a cd 3c 84 80 00 bd 51 1f ec 3d c6 33 9a 3d
       0.025097921 -0.031372562 0.11529411 0.07529406
000210 6c 9a cd 3d e8 53 ba 3c 6a 9a cd bd 6c 9a 4d bd
       0.10039219 0.022745088 -0.10039218 -0.050196096
000220 64 9a 4d bd c0 4d 67 3c 20 94 fa 3c 3c 07 54 3d
       -0.050196066 0.014117658 0.03058821 0.05176471
000230 c6 33 9a bd 00 00 80 b2 7e 80 00 3e d0 63 4a 3d
       -0.07529406 -1.4901161e-08 0.12549016 0.049411595
000240 70 9a cd 3d 70 9a 4d bd 78 80 00 be 04 54 ba 3d
       0.10039222 -0.05019611 -0.12549007 0.09098056
000250 c0 9a 4d bd 81 80 00 3e c0 43 2a bd 68 9a 4d 3d
       -0.05019641 0.1254902 -0.041568518 0.05019608
000260 81 80 00 3e c8 2b 92 bd 66 9a cd bd 00 99 4d 3b
       0.1254902 -0.07137257 -0.10039215 0.0031371713
000270 c6 33 9a bd 74 aa 5d bd 80 80 80 bb 74 9a 4d bd
       -0.07529406 -0.054117635 -0.0039215684 -0.050196126
000280 c2 3b a2 3d 52 9a cd 3d 5e 9a cd 3d c6 33 9a bd
       0.07921554 0.100392 0.10039209 -0.07529406
000290 7c 1d 37 3d 6a 9a cd bd 7a 80 00 3e dc 3b a2 3d
       0.044705853 -0.10039218 0.1254901 0.079215735
0002a0 6c 9a 4d bd fc 63 ca 3d 40 27 74 3c 81 80 00 3e
       -0.050196096 0.09882352 0.014901936 0.1254902
0002b0 64 9a 4d bd 64 9a cd 3d 80 9a cd 3c 00 54 ba bc
       -0.050196066 0.10039213 0.025098085 -0.022745132
0002c0 00 00 80 33 81 80 00 3e 40 ed 06 3d 20 5a 8d bc
       5.9604645e-08 0.1254902 0.032941103 -0.017254889
0002d0 70 9a 4d bd cc 33 9a bd d0 33 9a 3d 81 80 00 3e
       -0.05019611 -0.07529411 0.07529414 0.1254902
0002e0 b8 33 9a 3d 6c 9a cd 3d 40 7a ad bc 68 9a cd bd
       0.07529396 0.10039219 -0.021176457 -0.10039216
0002f0 40 9a 4d 3d 80 9a cd bc 4e ed 86 3d 60 9a 4d 3d
       0.050195932 -0.025098085 0.06588231 0.05019605
000300 68 9a cd 3d ec 53 ba 3d d0 33 9a bd 66 9a cd bd
       0.10039216 0.09098038 -0.07529414 -0.10039215
000310 e8 e0 e0 bc 00 00 a0 b3 60 80 80 bb 70 9a cd bc
       -0.027450994 -7.4505806e-08 -0.0039215535 -0.025098056
000320 90 90 10 bd 38 6a 1d 3d 74 0d a7 bd 81 80 00 3e
       -0.035294116 0.038431376 -0.08156863 0.1254902
000330 e0 9a cd 3c 68 9a cd 3d 80 9a cd 3c a0 a0 a0 bc
       0.025098264 0.10039216 0.025098085 -0.019607842
000340 00 00 00 00 70 9a 4d 3d 81 80 00 be 80 1d 37 3d
       0.0 0.05019611 -0.1254902 0.044705868
000350 d0 3b a2 3d 28 5a 8d bd 40 9a cd 3c 58 fd 96 3d
       0.079215646 -0.069019616 0.025097966 0.0737254
000360 60 9a cd bc 6c 9a cd 3d 00 00 a0 b4 d0 33 9a bd
       -0.025098026 0.10039219 -2.9802322e-07 -0.07529414
000370 d0 33 9a bd 50 ed 06 3d 00 00 80 b3 6c 9a cd 3d
       -0.07529414 0.032941163 -5.9604645e-08 0.10039219
000380 ce 33 9a 3d 70 9a cd 3c 90 ca 7d bd 81 80 00 3e
       0.07529412 0.025098056 -0.061960757 0.1254902
000390 74 9a 4d bd 68 27 f4 bc 70 9a cd 3c 50 9a 4d 3d
       -0.050196126 -0.029803947 0.025098056 0.050195992
0003a0 50 ed 86 bd 50 9a cd 3c 6c 9a cd 3d 00 00 00 33
       -0.065882325 0.025097996 0.10039219 2.9802322e-08
0003b0 00 9a cd ba 80 9a cd bc d0 33 9a 3d e8 e8 e8 3d
       -0.0015686154 -0.025098085 0.07529414 0.11372548
0003c0 00 00 80 33 d0 33 9a bd 80 9a cd bc c0 73 5a bc
       5.9604645e-08 -0.07529414 -0.025098085 -0.013333261
0003d0 68 9a cd bd 60 9a 4d bd 68 9a cd bd 58 27 74 bd
       -0.10039216 -0.05019605 -0.10039216 -0.059607834
0003e0 7e 80 00 3e d4 33 9a 3d 4c ed 86 3d 80 80 80 bb
       0.12549016 0.07529417 0.065882295 -0.0039215684
0003f0 a0 b0 30 3d 80 80 00 bd e0 53 3a 3d 30 27 74 3d
       0.043137193 -0.031372547 0.045490146 0.059607685
