defensePtqEval/UAPs/uqat_single/x_noisetst10000_w4a4_26.npy (npy, 12416 bytes, 1 tensors)

array f4 [1, 3, 32, 32]
0	0xbdd0d0c9	-0.101960726
1	0xb2800000	-1.4901161e-08
2	0xbdb0b0b1	-0.08627451
3	0x3ca70d8c	0.020392202
4	0x3c007fe0	0.007842988
5	0xbda70d74	-0.08156863
6	0x00000000	0.0
7	0x3d03b6c0	0.032156706
8	0xbda70d70	-0.0815686
9	0xbd43f740	-0.047843218
10	0xbd4a6410	-0.049411833
11	0xbd270d80	-0.04078436
12	0xbb9a3400	-0.004705906
13	0x3d371d90	0.044705927
14	0x3ca70da0	0.02039224
15	0xbc1a3400	-0.009411812
16	0xbda70d70	-0.0815686
17	0x3d008080	0.031372547
18	0xbb9a3400	-0.004705906
19	0xbcba5400	-0.022745132
20	0xbdd0d0d1	-0.101960786
21	0x3d13c714	0.036078528
22	0x3d5a7404	0.053333297
23	0x3c40c060	0.011764616
24	0xbb9a33c0	-0.004705876
25	0x3d7a9408	0.06117633
26	0x3da70d76	0.08156864
27	0x3d33e724	0.043921605
28	0x3c0080f0	0.007843241
29	0xbb9a33e0	-0.004705891
30	0xbca70d68	-0.020392135
31	0xbc4d9ab0	-0.012549087
32	0xbca70d48	-0.020392075
33	0xbdd0d0d1	-0.101960786
34	0x32c00000	2.2351742e-08
35	0xbc8d5a4c	-0.017254971
36	0x3d270d78	0.04078433
37	0xbd5daa80	-0.05411768
38	0x3da70d70	0.0815686
39	0xbdd0d0d1	-0.101960786
40	0xbda70d70	-0.0815686
41	0x3c808040	0.015686154
42	0xbda70d70	-0.0815686
43	0xbd270da0	-0.04078448
44	0x00000000	0.0
45	0xbc5a7400	-0.013333321
46	0x3ca70de0	0.020392358
47	0xbdd0d0d1	-0.101960786
48	0xbd7a9420	-0.06117642
49	0x3d8d5a40	0.069019794
50	0x3d7a9420	0.06117642
51	0x3d855220	0.06509805
52	0xbdd0d0d1	-0.101960786
53	0x3d270d2c	0.040784046
54	0xbd7a941c	-0.061176404
55	0xbda70d74	-0.08156863
56	0xbd9f055e	-0.077646956
57	0x3d270d64	0.040784255
58	0x3ce74dc8	0.028235331
59	0x3ca70d90	0.02039221
60	0xbd6a8418	-0.05725488
61	0xbd8bbef4	-0.06823531
62	0xbdd0d0d1	-0.101960786
63	0x3ca70d88	0.020392194
64	0xb4880000	-2.5331974e-07
65	0xbda70d6f	-0.08156859
66	0xbcad7a4c	-0.02117648
67	0x3ce74dcc	0.028235339
68	0xbd3a53d8	-0.045490116
69	0xbca70d40	-0.02039206
70	0x00000000	0.0
71	0x00000000	0.0
72	0x3d270d60	0.04078424
73	0xbcda7400	-0.026666641
74	0x3ca70d00	0.020391941
75	0x3d270d80	0.04078436
76	0xbd270d80	-0.04078436
77	0xbda70d70	-0.0815686
78	0x3d270d80	0.04078436
79	0x3d8d5a28	0.069019616
80	0xbd7a9440	-0.06117654
81	0xbc1a3400	-0.009411812
82	0xbd270d90	-0.04078442
83	0x3d7a9410	0.06117636
84	0x3cba53e0	0.022745073
85	0xbdd0d0d0	-0.10196078
86	0xbd270d70	-0.0407843
87	0xbdd0d0d1	-0.101960786
88	0x3d371d64	0.044705763
89	0xbd270d6c	-0.040784284
90	0xbda70d66	-0.081568524
91	0xbda70d70	-0.0815686
92	0xbd7a9420	-0.06117642
93	0xbd4a6410	-0.049411833
94	0xbc86ed58	-0.016470596
95	0x3cc72d98	0.024313733
96	0xbd270d86	-0.04078438
97	0xbca70d8c	-0.020392202
98	0xb2c00000	-2.2351742e-08
99	0x3d7a941c	0.061176404
100	0x3d270d58	0.04078421
101	0xbd1d6a20	-0.038431287
102	0xbd270d80	-0.04078436
103	0x3ca70d40	0.02039206
104	0xbdd0d0d1	-0.101960786
105	0xbdd0d0d0	-0.10196078
106	0x3cedba60	0.029019535
107	0xbd9898c0	-0.0745101
108	0x00000000	0.0
109	0x3db8b8c0	0.09019613
110	0xbdb71d78	-0.089411676
111	0xbd2a4400	-0.041568756
112	0x3d270d60	0.04078424
113	0xbdd0d0d1	-0.101960786
114	0xbd270d80	-0.04078436
115	0xbcedbaa0	-0.029019654
116	0x3db3e720	0.08784318
117	0xbdd0d0c8	-0.10196072
118	0xbd7a9410	-0.06117636
119	0x3dad7a42	0.084705845
120	0x3ca70d58	0.020392105
121	0x3d674d84	0.05647041
122	0xbdd0d0d1	-0.101960786
123	0xbd270d70	-0.0407843
124	0xbc86ed60	-0.016470611
125	0xbd5a7414	-0.053333357
126	0x33200000	3.7252903e-08
127	0xbd7a941a	-0.061176397
128	0xbda70d74	-0.08156863
129	0xbd270d7a	-0.040784337
130	0xbc008118	-0.007843278
131	0xb2800000	-1.4901161e-08
132	0xbda70d74	-0.08156863
133	0x3ca70d80	0.02039218
134	0x3d270d80	0.04078436
135	0x3d1a3400	0.037647247
136	0xbacd9800	-0.0015685558
137	0x3d9f0558	0.07764691
138	0x3d7a9420	0.06117642
139	0xbca70d40	-0.02039206
140	0x3ce74de0	0.028235376
141	0x3c40c0a0	0.011764675
142	0xb3c00000	-8.940697e-08
143	0xbd20a0b0	-0.039215744
144	0x33800000	5.9604645e-08
145	0x3ca70d00	0.020391941
146	0x00000000	0.0
147	0x3d20a0a0	0.039215684
148	0xbdd0d0d1	-0.101960786
149	0x34000000	1.1920929e-07
150	0x3cc72d80	0.024313688
151	0xbdc8c8d0	-0.09803927
152	0xbd7a93f4	-0.061176255
153	0x3d371d88	0.044705898
154	0xbdd0d0d1	-0.101960786
155	0xbcb3e700	-0.021960735
156	0xbd4a6420	-0.049411893
157	0xbd270db4	-0.040784553
158	0x3da70d6e	0.081568584
159	0xbd270d5a	-0.040784217
160	0x3d7a941c	0.061176404
161	0xbd88888d	-0.0666667
162	0x3bcd9bd0	0.006274678
163	0xbdd0d0d1	-0.101960786
164	0x3dd0d0d1	0.101960786
165	0x00000000	0.0
166	0x34000000	1.1920929e-07
167	0xbd7a9420	-0.06117642
168	0xbda70d70	-0.0815686
169	0xbdd0d0d1	-0.101960786
170	0xbca70dc0	-0.020392299
171	0x3d270d70	0.0407843
172	0xbda70d74	-0.08156863
173	0x3d93c6fb	0.07215687
174	0x3d7a93dc	0.061176166
175	0x00000000	0.0
176	0x3da70d70	0.0815686
177	0x33800000	5.9604645e-08
178	0xbd7a9430	-0.06117648
179	0x3dd0d0c2	0.101960674
180	0xbd270d6e	-0.040784292
181	0xbd7a9438	-0.06117651
182	0xbca70d80	-0.02039218
183	0xbdd0d0c8	-0.10196072
184	0xba4d9600	-0.0007842481
185	0xbdd0d0d1	-0.101960786
186	0xbd7a9408	-0.06117633
187	0x3b808040	0.0039215386
188	0x3d270d68	0.04078427
189	0xbd270d98	-0.04078445
190	0x3d8d5a26	0.0690196
191	0x3ca70d34	0.020392038
192	0xbdd0d0cd	-0.101960756
193	0xbdd0d0d1	-0.101960786
194	0x3d7a943c	0.061176524
195	0xb2800000	-1.4901161e-08
196	0xbd270d78	-0.04078433
197	0x3da0a0a0	0.07843137
198	0xbd270d60	-0.04078424
199	0x00000000	0.0
200	0xbda70d78	-0.08156866
201	0xbd7a9420	-0.06117642
202	0x3dd0d0d1	0.101960786
203	0x3d775dd0	0.0603922
204	0x3dd0d0cc	0.10196075
205	0xbda70d6d	-0.08156858
206	0x3ca70dd4	0.020392336
207	0x3ca70d90	0.02039221
208	0xb3800000	-5.9604645e-08
209	0x3c40c080	0.011764646
210	0xbdc0c0d4	-0.09411779
211	0xbd888889	-0.06666667
212	0x3ce74da4	0.028235264
213	0x3da70d6a	0.081568554
214	0x3d270d60	0.04078424
215	0xbdc8c8c0	-0.09803915
216	0x3ca70d50	0.02039209
217	0xbd7a9430	-0.06117648
218	0x3d270d98	0.04078445
219	0x3ca70dd0	0.020392329
220	0xbd270d68	-0.04078427
221	0x3ca70dd0	0.020392329
222	0x3d85521a	0.065098
223	0xbd7a9442	-0.061176546
224	0xbda70d73	-0.08156862
225	0xbd16fd5c	-0.036862716
226	0x3da70d72	0.08156861
227	0x3c742730	0.014901921
228	0xbd270d58	-0.04078421
229	0x3da70d68	0.08156854
230	0xbd16fd70	-0.03686279
231	0xbd775de0	-0.06039226
232	0x3d270d50	0.04078418
233	0xbd573d90	-0.052548945
234	0xbd20a098	-0.039215654
235	0x3d1090a0	0.035294175
236	0x3d270d68	0.04078427
237	0xbdd0d0c9	-0.101960726
238	0x3d30b0ac	0.043137237
239	0xbca70d60	-0.02039212
240	0xbca70db0	-0.020392269
241	0xbdd0d0d0	-0.10196078
242	0xbd270d56	-0.040784203
243	0x3d7a93f2	0.061176248
244	0x3da70d82	0.08156873
245	0xbda70d70	-0.0815686
246	0xbc0d5a00	-0.008627415
247	0xbca70da0	-0.02039224
248	0xbdc0c0d4	-0.09411779
249	0xbca70d70	-0.02039215
250	0x3b8080c0	0.003921598
251	0xbda70d6c	-0.08156857
252	0x3da70d4c	0.08156833
253	0xbd7a9428	-0.06117645
254	0xb4600000	-2.0861626e-07
255	0xbacd9b80	-0.0015686601
