defensePtqEval/UAPs/uqat_single/x_noisetst10000_w4a4_16.npy (npy, 12416 bytes, 1 tensors)

array f4 [1, 3, 32, 32]
000000 30 e7 b3 bc 00 00 80 33 50 9a 4d bd 50 94 7a bd
       -0.021960825 5.9604645e-08 -0.050195992 -0.061176598
000010 18 34 1a bd b8 33 1a 3d d0 33 1a 3d 00 9a 4d bc
       -0.037647337 0.03764698 0.03764707 -0.0125489235
000020 f0 b0 30 bd 08 64 4a 3d 68 9a 4d bd 60 9a 4d 3c
       -0.04313749 0.049411803 -0.05019608 0.012549013
000030 a0 99 4d bc c0 33 1a 3d 80 80 80 3d 60 80 80 3d
       -0.012548834 0.03764701 0.062745094 0.062744856
000040 c8 33 1a bd 00 9e 4d ba d8 33 1a 3d d8 33 1a bd
       -0.03764704 -0.0007843673 0.0376471 -0.0376471
000050 70 4d e7 3c 60 9a 4d bc 70 4d e7 bc 81 80 80 bd
       0.028235167 -0.012549013 -0.028235167 -0.0627451
000060 c8 33 1a bd 48 17 64 3d 30 9a cd 3c 30 07 d4 bc
       -0.03764704 0.055686265 0.025097936 -0.025882334
000070 40 4d e7 3b b8 b0 30 bd 80 a0 a0 3c 30 34 9a bc
       0.0070587695 -0.043137282 0.019607782 -0.018823713
000080 c0 33 1a 3d 80 80 80 bd 81 80 80 bd 00 00 80 33
       0.03764701 -0.062745094 -0.0627451 5.9604645e-08
000090 78 80 80 3d 00 54 3a 3d a0 27 f4 bc 40 9a cd bc
       0.062745035 0.045490265 -0.02980405 -0.025097966
0000a0 80 80 80 3d 40 9a 4d bc d0 9a cd bc f8 33 1a 3d
       0.062745094 -0.012548983 -0.025098234 0.037647218
0000b0 58 9a 4d bd 20 9a 4d 3d a0 2d 47 3d 80 9a cd 3c
       -0.05019602 0.050195813 0.048627496 0.025098085
0000c0 80 9a 4d bc a8 a0 20 3d 00 00 00 b3 90 9a cd bc
       -0.012549043 0.039215714 -2.9802322e-08 -0.025098115
0000d0 90 2d c7 3c 60 99 4d bc 78 1d 37 bd e0 9a 4d bc
       0.024313718 -0.0125487745 -0.044705838 -0.012549132
0000e0 70 9a cd bc d8 33 1a bd 7c 80 80 bd 48 9a 4d 3d
       -0.025098056 -0.0376471 -0.062745064 0.050195962
0000f0 68 9a 4d bd 00 9b 4d bc 80 27 f4 bc 60 ed 06 3d
       -0.05019608 -0.012549162 -0.029803991 0.032941222
000100 60 9a cd bc d0 33 1a bd 40 9a 4d bc 00 9a cd 3c
       -0.025098026 -0.03764707 -0.012548983 0.025097847
000110 60 9a 4d 3d 40 99 4d bc 00 99 4d 3b 60 9a 4d 3d
       0.05019605 -0.012548745 0.0031371713 0.05019605
000120 80 80 80 3d 50 9a 4d bd 00 00 00 00 c0 9a 4d bc
       0.062745094 -0.050195992 0.0 -0.012549102
000130 00 9b 4d 3b 60 9a 4d bd 60 9a 4d bd c0 33 1a bd
       0.0031372905 -0.05019605 -0.05019605 -0.03764701
000140 50 5a 0d bd 40 ed 06 3d 60 9a 4d 3d 81 80 80 bd
       -0.034509957 0.032941103 0.05019605 -0.0627451
000150 6c 80 80 3d b8 c0 40 bd 7c 80 80 bd 60 9a 4d bc
       0.062744945 -0.04705879 -0.062745064 -0.012549013
000160 50 ed 86 3c 00 00 c0 b3 7c 80 80 3d 00 00 00 b3
       0.016470581 -8.940697e-08 0.062745064 -2.9802322e-08
000170 c8 33 1a bd a0 9a cd 3c 68 9a 4d 3d 00 4e e7 3b
       -0.03764704 0.025098145 0.05019608 0.007058859
000180 00 34 9a bb 30 f7 43 bd 81 80 80 3d 60 9a cd 3c
       -0.004705906 -0.04784316 0.0627451 0.025098026
000190 68 9a 4d bd 00 00 80 33 c0 9a 4d bc 70 9a 4d bd
       -0.05019608 5.9604645e-08 -0.012549102 -0.05019611
0001a0 81 80 80 3d 20 74 5a 3d c0 33 1a 3d 40 9a 4d bc
       0.0627451 0.0533334 0.03764701 -0.012548983
0001b0 60 9a 4d bd 90 9a 4d 3d 60 8a 3d bd 40 9a 4d bc
       -0.05019605 0.05019623 -0.046274543 -0.012548983
0001c0 20 9a cd bc 60 9a 4d bd 00 33 1a 3b 68 9a 4d bd
       -0.025097907 -0.05019605 0.0023528934 -0.05019608
0001d0 c8 33 1a bd 00 00 00 33 81 80 80 3d b8 d0 50 bd
       -0.03764704 2.9802322e-08 0.0627451 -0.0509803
0001e0 50 9a cd 3c d8 63 4a 3d 68 9a 4d bd 60 9a cd 3c
       0.025097996 0.049411625 -0.05019608 0.025098026
0001f0 81 80 80 bd 74 80 80 bd 00 00 00 b3 d0 33 9a bc
       -0.0627451 -0.062745005 -2.9802322e-08 -0.018823534
000200 81 80 80 3d 81 80 80 3d 81 80 80 3d c0 33 1a bd
       0.0627451 0.0627451 0.0627451 -0.03764701
000210 40 9a 4d bc c0 33 1a bd a0 53 ba 3c 81 80 80 3d
       -0.012548983 -0.03764701 0.022744954 0.0627451
000220 c0 33 1a 3d 60 9a 4d bd 80 80 80 bd 60 9a 4d bd
       0.03764701 -0.05019605 -0.062745094 -0.05019605
000230 a0 2d c7 3c 60 9a 4d bd c0 33 1a 3d a0 9a cd 3c
       0.024313748 -0.05019605 0.03764701 0.025098145
000240 60 9a 4d bd 40 e7 33 3c 40 9a cd bc c0 9a 4d bc
       -0.05019605 0.010980427 -0.025097966 -0.012549102
000250 40 9a 4d 3d 81 80 80 3d 50 9a cd 3c e0 99 4d 3c
       0.050195932 0.0627451 0.025097996 0.012548894
000260 60 c0 40 3c a8 33 1a 3d 50 9a cd bc 30 ed 86 3c
       0.011764616 0.03764692 -0.025097996 0.016470522
000270 81 80 80 3d 40 9a cd bc 68 9a 4d bd 78 aa 5d 3d
       0.0627451 -0.025097966 -0.05019608 0.05411765
000280 80 34 9a 3b 70 fd 16 3d 60 9a 4d bd 81 80 80 bd
       0.0047059655 0.03686279 -0.05019605 -0.0627451
000290 60 9a 4d bd 00 00 00 b4 d0 33 1a 3d 60 9a cd 3c
       -0.05019605 -1.1920929e-07 0.03764707 0.025098026
0002a0 80 80 80 bd 81 80 80 bd 00 9b 4d bc 81 80 80 3d
       -0.062745094 -0.0627451 -0.012549162 0.0627451
0002b0 60 9a 4d bd 70 9a 4d 3d 81 80 80 bd c0 99 4d bc
       -0.05019605 0.05019611 -0.0627451 -0.012548864
0002c0 80 80 80 bd 58 9a 4d bd 74 80 80 3d 08 34 1a bd
       -0.062745094 -0.05019602 0.062745005 -0.037647277
0002d0 81 80 80 3d 48 e7 33 3d 70 9a cd bc 20 9a 4d 3c
       0.0627451 0.04392174 -0.025098056 0.012548953
0002e0 c0 2d c7 3c 78 9a 4d bd 10 2d c7 3c f0 c6 13 3d
       0.024313807 -0.05019614 0.02431348 0.036078393
0002f0 e0 33 1a bd 00 00 40 b4 c0 33 1a bd 70 9a cd bc
       -0.037647128 -1.7881393e-07 -0.03764701 -0.025098056
000300 e0 f0 70 3d 40 7a ad 3c 60 9a 4d bd d0 33 1a bd
       0.058823466 0.021176457 -0.05019605 -0.03764707
000310 e0 33 1a bd 80 80 80 3d 40 9a cd 3c 81 80 80 bd
       -0.037647128 0.062745094 0.025097966 -0.0627451
000320 c0 9a 4d bc 60 9a 4d bd c0 99 4d bc 40 9a cd bc
       -0.012549102 -0.05019605 -0.012548864 -0.025097966
000330 c0 9a 4d bc 70 9a 4d bd 60 9a 4d bd 00 9a 4d 3c
       -0.012549102 -0.05019611 -0.05019605 0.0125489235
000340 00 9a 4d 3c 68 9a 4d 3d 78 9a 4d 3d 40 99 4d bc
       0.0125489235 0.05019608 0.05019614 -0.012548745
000350 20 9a 4d bc 7c 80 80 bd 30 9a cd 3c 81 80 80 bd
       -0.012548953 -0.062745064 0.025097936 -0.0627451
000360 70 9a cd bc e0 33 1a 3d 68 9a 4d bd 00 9a 4d bc
       -0.025098056 0.037647128 -0.05019608 -0.0125489235
000370 81 80 80 bd 81 80 80 3d 81 80 80 3d 81 80 80 bd
       -0.0627451 0.0627451 0.0627451 -0.0627451
000380 81 80 80 3d 81 80 80 bd f0 33 1a 3d d0 33 1a bd
       0.0627451 -0.0627451 0.037647188 -0.03764707
000390 00 9a 4d bc d0 33 1a 3d 20 9a cd 3c c0 33 1a bd
       -0.0125489235 0.03764707 0.025097907 -0.03764701
0003a0 c0 2d c7 3c 60 9a cd bc f0 33 1a 3d 60 9a 4d 3d
       0.024313807 -0.025098026 0.037647188 0.05019605
0003b0 60 9a 4d 3d 00 00 80 b3 e0 33 1a 3d 00 32 1a 3b
       0.05019605 -5.9604645e-08 0.037647128 0.0023528337
0003c0 60 9a 4d bd 20 9a cd bc 50 9a 4d 3d 80 9a cd bc
       -0.05019605 -0.025097907 0.050195992 -0.025098085
0003d0 c0 33 1a 3d 30 9a cd bc c8 33 1a 3d 80 80 80 3d
       0.03764701 -0.025097936 0.03764704 0.062745094
0003e0 7c 80 80 bd 81 80 80 3d 50 9a cd bc e0 33 1a 3d
       -0.062745064 0.0627451 -0.025097996 0.037647128
0003f0 c0 99 cd 3c 00 00 00 34 c0 9a 4d 3c 80 9a 4d bd
       0.025097728 1.1920929e-07 0.012549102 -0.05019617
