defensePtqEval/UAPs/uqat_single/x_noisetr10000_w1a1_32.npy (npy, 12416 bytes, 1 tensors)

array f4 [1, 3, 32, 32]
00000000: 20ef bbbd 609a 4d3d 6c9a cdbd 6c9a cdbd
00000010: 8180 003e 004e e7bb 58f5 8ebd 8180 00be
00000020: 0000 80b3 0000 0000 8080 00be 809a cdbc
00000030: 8080 00bc 205a 0dbd 809a cd3b 5827 f4bd
00000040: 509a 4d3d 0000 80b3 609a 4dbd 285a 8dbd
00000050: 8027 74bc 609a cdbd 609a cdbc 8080 00be
00000060: 8180 00be 0000 00b4 2084 6abd 8180 00be
00000070: 609a 4dbd 609a 4d3d 709a 4dbd 0000 00b3
00000080: 009e cdba 8080 00be d033 9abd 5c9a cd3d
00000090: 8180 003e 8180 00be 409a cd3c 649a cd3d
000000a0: 609a cd3c 3807 d4bd 407a adbc 609a cd3c
000000b0: 709a 4dbd 800d 273c ecb6 833d 8080 803b
000000c0: 400d 273c b833 9abd e033 9abc 2052 85bd
000000d0: 6caa dd3d 80ba 6d3d 409a cdbc 6c9a cd3d
000000e0: 6c9a cd3d 709a 4dbd 689a cdbd 6c9a cd3d
000000f0: 5892 c5bd c833 9abd 809a cdbc 609a cdbd
00000100: 649a cdbd 909a cdbc 700d 273d 609a cd3c
00000110: 689a cdbd 909a cdbd 489a 4d3d 0027 f43c
00000120: d033 9abd 809a cdbc 04df ab3d 809a cdbc
00000130: 508a 3dbd 508a 3dbd 6c9a cdbd 7680 003e
00000140: 501f ecbd 609a cdbc 549a cd3d 5827 f4bd
00000150: 70ca 7d3d 58ca 7d3d 509a 4dbd f063 4a3d
00000160: 709a 4dbd 6ca2 d53d 10e7 33bd 689a cd3c
00000170: 409a cd3c 7c80 00be 64a2 d53d 548a bd3d
00000180: d033 9abd 80ba ed3c 409a 4d3c 709a 4dbd
00000190: d033 1abd 0092 cd3a c433 9a3d 6c9a cdbd
000001a0: 400d 273c 1ce7 b33d 6c9a cdbd 8180 00be
000001b0: 0007 d43c 689a cdbd 8027 74bc 8180 003e
000001c0: 501f ecbd 609a cd3c 3407 d43d 501f ecbd
000001d0: 6c9a cdbd 549a cd3d e099 cd3c 508a 3dbd
000001e0: e853 ba3d 0034 1a3b d233 9abd 649a cd3c
000001f0: 8180 003e 789a 4dbd 6c9a cdbd 589a 4d3d
00000200: 609a cdbc 58ba 6d3d 70ba ed3c 789a cdbd
00000210: 7c80 803d 5c9a cd3d 6c9a cdbd 3094 7abd
00000220: 6c9a cd3d 20e7 33bd 8180 00be 609a 4d3d
00000230: 608a 3dbd 6027 74bc 689a 4dbd cc33 9abd
00000240: d843 2a3d 8080 00be 0000 0000 0000 80b3
00000250: 689a cdbd 6c9a cdbd 7a80 003e 8080 00be
00000260: 8081 803b d033 9abd 8180 00be b490 10bd
00000270: 4081 803b 30ff cbbd 88ba 6d3d 781d 373d
00000280: 6c9a cd3d 909a cd3c d433 9abd e833 9abd
00000290: 009a cdba 609a cd3c 589a 4d3d 2894 7a3d
000002a0: 2084 6abd 4817 e4bd 7a80 003e 609a 4d3d
000002b0: 78aa 5d3d 6caa dd3d 602f fcbd 209a cd3c
000002c0: 4094 fa3c 789a 4d3d c82b 92bd 209a cd3c
000002d0: 6c9a cd3d 8180 00be 8180 00be c09a cdbc
000002e0: 8080 00be 70aa 5d3d 8080 803b 689a cdbd
000002f0: 420f dcbd 6c9a cd3d 2094 fabc 609a cdbd
00000300: 609a cd3c cc33 9abd 80ba ed3c a094 fabc
00000310: cc33 9abd 989a 4dbd 6c9a cd3d 649a cd3d
00000320: 6c9a cdbd 6c9a cdbd 8180 003e 6027 74bc
00000330: 80ba edbc 205a 0d3c 609a cd3c 909a cdbc
00000340: 2084 6abd 2094 fabc 649a cdbd 046c d2bd
00000350: 8180 00be 1844 2abd 5892 c5bd d033 9abd
00000360: 8180 00be d033 9a3d 6a9a cd3d 548a 3dbd
00000370: dc43 2abd 0000 0033 8080 00be 6c9a cdbd
00000380: 589a 4dbd 7e80 00be 407a adbc 509a 4d3d
00000390: d843 2abd 7e80 00be 549a cdbd 7680 003e
000003a0: 004e e7bb d033 9abd 589a 4d3d 6c9a cd3d
000003b0: 4405 9f3d 389a 4dbd 7c80 803d 7e80 003e
000003c0: cc33 9abd 809a cdbc 8180 003e 709a 4dbd
000003d0: 508a 3dbd 5888 883d 709a 4dbd 709a 4dbd
000003e0: 205a 8dbc 689a cdbd 489a cd3c 249a cd3c
000003f0: 6e9a cdbd 7c80 00be c423 8abd 649a cdbd
-0.09176469 0.05019605 -0.10039219 -0.10039219 0.1254902 -0.007058859 -0.06980389 -0.1254902
-5.9604645e-08 0.0 -0.12549019 -0.025098085 -0.007843137 -0.034509778 0.0062745214 -0.11921567
0.050195992 -5.9604645e-08 -0.05019605 -0.069019616 -0.014901996 -0.1003921 -0.025098026 -0.12549019
-0.1254902 -1.1920929e-07 -0.05725491 -0.1254902 -0.05019605 0.05019605 -0.05019611 -2.9802322e-08
-0.0015687346 -0.12549019 -0.07529414 0.10039207 0.1254902 -0.1254902 0.025097966 0.10039213
0.025098026 -0.10352939 -0.021176457 0.025098026 -0.05019611 0.01019609 0.06431374 0.0039215684
0.01019603 -0.07529396 -0.018823564 -0.06509805 0.10823521 0.05803919 -0.025097966 0.10039219
0.10039219 -0.05019611 -0.10039216 0.10039219 -0.096470535 -0.07529408 -0.025098085 -0.1003921
-0.10039213 -0.025098115 0.0407843 0.025098026 -0.10039216 -0.10039246 0.050195962 0.029803753
-0.07529414 -0.025098085 0.08392146 -0.025098085 -0.046274483 -0.046274483 -0.10039219 0.12549004
-0.1152941 -0.025098026 0.100392014 -0.11921567 0.061960638 0.06196055 -0.050195992 0.049411714
-0.05019611 0.1043137 -0.04392153 0.02509804 0.025097966 -0.12549013 0.10431364 0.092548996
-0.07529414 0.029019594 0.012548983 -0.05019611 -0.03764707 0.001568377 0.07529405 -0.10039219
0.01019603 0.08784315 -0.10039219 -0.1254902 0.025882244 -0.10039216 -0.014901996 0.1254902
-0.1152941 0.025098026 0.103529364 -0.1152941 -0.10039219 0.100392014 0.025097787 -0.046274483
0.09098035 0.002352953 -0.07529415 0.025098033 0.1254902 -0.05019614 -0.10039219 0.05019602
-0.025098026 0.05803904 0.029019564 -0.10039228 0.062745064 0.10039207 -0.10039219 -0.06117648
0.10039219 -0.04392159 -0.1254902 0.05019605 -0.046274543 -0.014901966 -0.05019608 -0.07529411
0.041568607 -0.12549019 0.0 -5.9604645e-08 -0.10039216 -0.10039219 0.1254901 -0.12549019
0.0039216876 -0.07529414 -0.1254902 -0.03529425 0.003921658 -0.099607825 0.05803922 0.044705838
0.10039219 0.025098115 -0.07529417 -0.075294316 -0.0015686154 0.025098026 0.05019602 0.06117645
-0.05725491 -0.11137253 0.1254901 0.05019605 0.05411765 0.10823521 -0.123137236 0.025097907
0.03058827 0.05019614 -0.07137257 0.025097907 0.10039219 -0.1254902 -0.1254902 -0.025098205
-0.12549019 0.05411762 0.0039215684 -0.10039216 -0.10745098 0.10039219 -0.03058821 -0.1003921
0.025098026 -0.07529411 0.029019594 -0.030588448 -0.07529411 -0.05019626 0.10039219 0.10039213
-0.10039219 -0.10039219 0.1254902 -0.014901966 -0.029019594 0.0086274445 0.025098026 -0.025098115
-0.05725491 -0.03058821 -0.10039213 -0.102745086 -0.1254902 -0.041568846 -0.096470535 -0.07529414
-0.1254902 0.07529414 0.10039218 -0.046274498 -0.041568622 2.9802322e-08 -0.12549019 -0.10039219
-0.05019602 -0.12549016 -0.021176457 0.050195992 -0.041568607 -0.12549016 -0.100392014 0.12549004
-0.007058859 -0.07529414 0.05019602 0.10039219 0.07764676 -0.050195903 0.062745064 0.12549016
-0.07529411 -0.025098085 0.1254902 -0.05019611 -0.046274483 0.066666305 -0.05019611 -0.05019611
-0.017254889 -0.10039216 0.025097981 0.025097914 -0.10039221 -0.12549013 -0.06745103 -0.10039213
