genUAPonQT/PTQ/singlemodel/x_noiseraw10000_w4a4_26.npy (npy, 12416 bytes, 1 tensors)

array f4 [1, 32, 32, 3]
00000000: 600d a7bc 8033 1a3c 60ed 863c 600d a7bc
00000010: 800d a7bc 009c 4d3a 60ed 863c 60ed 863c
00000020: a02d c7bc 800d a73c 500d 27bd 80c0 40bc
00000030: 405a 0d3c 600d a7bc a080 80bc 009a 4dbb
00000040: a0a0 a0bc 60ed 863c c0c0 c03c 8080 803c
00000050: a0a0 a03c 2094 7abd 8080 00bc 0033 1abb
00000060: d03b a23d 700d a73d 709a 4d3d 0000 8033
00000070: 800d a7bc a0a0 a03c 2094 7a3d e080 803c
00000080: 700d a73d 0000 0000 8080 003c 00e7 33bc
00000090: 0000 0000 700d a73d d823 0abd 640d 27bd
000000a0: 7605 9f3d 730d a73d 285a 8d3c 0000 4033
000000b0: 740d 273d 540d 273d 2294 7abd 009d 4dba
000000c0: 2494 7abd d1d0 d03d ced0 d03d c6d0 d0bd
000000d0: cac8 c83d 740d a73d 0000 8033 1084 6a3d
000000e0: 0000 00b3 30f7 433d 0000 0000 a00d 27bd
000000f0: 0000 0034 3094 7abd c8d0 d0bd 0034 9abb
00000100: f0f0 703d d1d0 d0bd 2094 7abd 600d a73c
00000110: 8080 803c 4007 54bd 8080 00bc c0c0 c03c
00000120: 600d a7bc 9090 103d 600d 273d 0000 0000
00000130: 200d a73c 400d a73c 200d 273d 8080 003d
00000140: d1d0 d0bd a0a0 203d 0099 4dbb 0000 80b3
00000150: 20e7 b33c 2094 7abd d1d0 d0bd 68f5 8e3d
00000160: 0000 0000 700d a7bd 9090 103d 700d a7bd
00000170: 700d a7bd 700d a73d 0080 803b 700d 273d
00000180: a02d c7bc 680d a73d d0d0 50bd 009c 4d3a
00000190: 20e7 33bd 600d a73c 0000 0034 8080 003d
000001a0: 60ed 863c 800d 273d 700d a73d 60ed 863c
000001b0: 800d 273d 0000 0000 c00d a73c c0c0 403d
000001c0: a0ca 7d3d 0000 8033 d1d0 d0bd 40ed 063d
000001d0: 700d 273d 80ed 863c 4094 7a3d 4094 fa3c
000001e0: a00d 27bd 2094 7a3d 800d a73c 30f7 c3bd
000001f0: 0000 0000 409a cd3c b0b0 303d 18d7 a33d
00000200: 700d a73d 1094 7a3d 000d a7bc 5094 7abd
00000210: 0000 0000 700d 273d 3094 7a3d 1484 6abd
00000220: 280d a73c 720d a73d d1d0 d03d 820d 27bd
00000230: b24d 67bd 5a0d a73d d1d0 d0bd 11df abbd
00000240: 760d a73d 980d a73c 880d a73c 890d a7bd
00000250: ec0d a7bc d1d0 d03d 2c94 7abd 982d c7bc
00000260: d1d0 d03d 680d 273d 740d a73d 7c0d 27bd
00000270: d1d0 d0bd 900d a73d 600d a7bc c05d 77bd
00000280: 28e7 b33d 780d a73d d1d0 d0bd 700d 27bd
00000290: 4094 7abd 9090 103d 700d 273d 680d a73d
000002a0: c0c0 403d 60ed 863c 8080 003d d0d0 503d
000002b0: 805a 0d3c 700d a7bd a00d a7bc 607a 2d3d
000002c0: 0000 80b3 800d a7bc 0054 ba3c 00e7 b3bb
000002d0: 40e7 33bc 700d 273d 400d a73c 8080 00bd
000002e0: 0081 803b 500d 273d 800d a7bd 800d a7bc
000002f0: 3094 7abd 609a cd3c 0000 0000 a00d a7bc
00000300: 700d 273d 3094 7a3d 600d 273d 70fd 163d
00000310: 700d a73d 780d a73d 58f5 8ebd 2094 7a3d
00000320: 0096 cd3a 60ed 863c 8080 003d 8074 5abc
00000330: 700d 27bd 0094 7abd 0000 8033 c0c0 403d
00000340: 600d a7bc 0000 0000 800d 27bd 2094 7a3d
00000350: 0000 80b3 680d a7bd 600d a73c c00d a7bc
00000360: 9090 103d 780d a73d 8080 003d 8080 80bb
00000370: 700d 273d 700d a73d 40ed 863c 607a ad3c
00000380: 780d a73d 3094 7a3d 200d a7bc 0000 0034
00000390: c8d0 d0bd 800d 27bd 700d 27bd c8d0 d0bd
000003a0: 0000 0000 d0d0 d03d 0000 0033 cad0 d03d
000003b0: 760d a73d 700d a73d 7c0d a7bd 2af7 c3bd
000003c0: 5c0d a73d 700d a7bc a80d a73c e033 1abd
000003d0: 8c0d a73d d1d0 d03d d1d0 d0bd e043 2abd
000003e0: 1074 5a3d d1d0 d0bd d1d0 d03d 680d a7bd
000003f0: 20e7 b3bc 700d a73d d1d0 d03d 500d 27bd
-0.02039212 0.009411693 0.016470611 -0.02039212 -0.02039218 0.0007843375 0.016470611 0.016470611
-0.024313748 0.02039218 -0.04078418 -0.011764646 0.008627474 -0.02039212 -0.015686333 -0.0031372309
-0.019607842 0.016470611 0.02352941 0.015686274 0.019607842 -0.06117642 -0.007843137 -0.0023528934
0.079215646 0.0815686 0.05019611 5.9604645e-08 -0.02039218 0.019607842 0.06117642 0.015686452
0.0815686 0.0 0.007843137 -0.010980368 0.0 0.0815686 -0.03372559 -0.040784255
0.077647135 0.08156862 0.017254904 4.4703484e-08 0.040784314 0.040784195 -0.061176427 -0.0007843524
-0.061176434 0.101960786 0.10196076 -0.101960704 0.098039225 0.08156863 5.9604645e-08 0.05725485
-2.9802322e-08 0.04784316 0.0 -0.04078448 1.1920929e-07 -0.06117648 -0.10196072 -0.004705906
0.058823526 -0.101960786 -0.06117642 0.02039212 0.015686274 -0.051764727 -0.007843137 0.02352941
-0.02039212 0.035294116 0.04078424 0.0 0.020392 0.02039206 0.040784 0.031372547
-0.101960786 0.039215684 -0.0031371713 -5.9604645e-08 0.021960795 -0.06117642 -0.101960786 0.06980401
0.0 -0.0815686 0.035294116 -0.0815686 -0.0815686 0.0815686 0.003921509 0.0407843
-0.024313748 0.08156854 -0.05098039 0.0007843375 -0.04392159 0.02039212 1.1920929e-07 0.031372547
0.016470611 0.04078436 0.0815686 0.016470611 0.04078436 0.0 0.020392299 0.04705882
0.061960816 5.9604645e-08 -0.101960786 0.032941103 0.0407843 0.01647067 0.06117654 0.03058827
-0.04078448 0.06117642 0.02039218 -0.09568632 0.0 0.025097966 0.043137252 0.0800001
0.0815686 0.06117636 -0.020391941 -0.061176598 0.0 0.0407843 0.06117648 -0.057254866
0.020392016 0.08156861 0.101960786 -0.040784366 -0.05647058 0.081568435 -0.101960786 -0.08392156
0.08156864 0.020392224 0.020392194 -0.081568785 -0.02039238 0.101960786 -0.061176464 -0.024313733
0.101960786 0.04078427 0.08156863 -0.040784344 -0.101960786 0.08156884 -0.02039212 -0.06039214
0.08784324 0.08156866 -0.101960786 -0.0407843 -0.06117654 0.035294116 0.0407843 0.08156854
0.04705882 0.016470611 0.031372547 0.05098039 0.008627534 -0.0815686 -0.02039224 0.042353034
-5.9604645e-08 -0.02039218 0.022745132 -0.005490184 -0.010980427 0.0407843 0.02039206 -0.031372547
0.003921628 0.04078418 -0.08156872 -0.02039218 -0.06117648 0.025098026 0.0 -0.02039224
0.0407843 0.06117648 0.04078424 0.03686279 0.0815686 0.08156866 -0.06980389 0.06117642
0.0015684962 0.016470611 0.031372547 -0.01333344 -0.0407843 -0.0611763 5.9604645e-08 0.04705882
-0.02039212 0.0 -0.04078436 0.06117642 -5.9604645e-08 -0.08156854 0.02039212 -0.020392299
0.035294116 0.08156866 0.031372547 -0.0039215684 0.0407843 0.0815686 0.016470551 0.021176517
0.08156866 0.06117648 -0.020392 1.1920929e-07 -0.10196072 -0.04078436 -0.0407843 -0.10196072
0.0 0.10196078 2.9802322e-08 0.10196073 0.08156864 0.0815686 -0.08156869 -0.09568627
0.08156845 -0.02039215 0.020392254 -0.037647128 0.08156881 0.101960786 -0.101960786 -0.041568637
0.053333342 -0.101960786 0.101960786 -0.08156854 -0.021960795 0.0815686 0.101960786 -0.04078418
