genUAPonQT/PTQ/singlemodel/x_noisetr10000_w3a2_26.npy (npy, 12416 bytes, 1 tensors)

array f4 [1, 32, 32, 3]
0	0xbda70d54	-0.08156839
1	0xb3000000	-2.9802322e-08
2	0xbdd0d0d1	-0.101960786
3	0x3d7a9428	0.06117645
4	0x3ccd9a80	0.025098085
5	0xbca70d70	-0.02039215
6	0x3d270d78	0.04078433
7	0x3da70d74	0.08156863
8	0x3da70d94	0.08156887
9	0xbd270d68	-0.04078427
10	0x3d06ed78	0.03294131
11	0x3d7a9418	0.06117639
12	0xbd4d9a78	-0.05019614
13	0x3d270d58	0.04078421
14	0x3d7a9428	0.06117645
15	0xbca70d90	-0.02039221
16	0xbd9bcf14	-0.076078564
17	0x3d7a9428	0.06117645
18	0x3da70d6c	0.08156857
19	0x3ccd9a70	0.025098056
20	0xbcf42750	-0.029803902
21	0xbd270d98	-0.04078445
22	0x3da70d74	0.08156863
23	0xbd7a9418	-0.06117639
24	0xb4200000	-1.4901161e-07
25	0x3dd0d0d1	0.101960786
26	0xbca70d70	-0.02039215
27	0x3da70d74	0.08156863
28	0xbd270d78	-0.04078433
29	0xbcd40730	-0.025882334
30	0x3da70d74	0.08156863
31	0xbda70d74	-0.08156863
32	0xbd7a9430	-0.06117648
33	0xbd7a9428	-0.06117645
34	0x3d7a9418	0.06117639
35	0xbd7a9428	-0.06117645
36	0x33c00000	8.940697e-08
37	0x3d33e718	0.04392156
38	0x3ca70d90	0.02039221
39	0x3d7a9418	0.06117639
40	0x3da70d6c	0.08156857
41	0xbca70d50	-0.02039209
42	0x3da70d74	0.08156863
43	0x3d7a9428	0.06117645
44	0xbdc8c8c4	-0.09803918
45	0xbca70db0	-0.020392269
46	0xbd8bbee4	-0.06823519
47	0xbdd0d0d1	-0.101960786
48	0x3d270d78	0.04078433
49	0xbca70d70	-0.02039215
50	0xbd7a9430	-0.06117648
51	0x3ca70d30	0.02039203
52	0xbdd0d0d1	-0.101960786
53	0xbd7a9448	-0.06117657
54	0x3da70d64	0.08156851
55	0x3ca70d80	0.02039218
56	0xbbb3e6c0	-0.005490154
57	0xbd270d68	-0.04078427
58	0xbd7a9428	-0.06117645
59	0xbda70d70	-0.0815686
60	0xbdd0d0cc	-0.10196075
61	0x3dd0d0d0	0.10196078
62	0x3ca70d10	0.02039197
63	0x33c00000	8.940697e-08
64	0x3da70d70	0.0815686
65	0x3d7a9428	0.06117645
66	0xbd270d78	-0.04078433
67	0xbd5a7418	-0.053333372
68	0xbda70d74	-0.08156863
69	0x3dd0d0d1	0.101960786
70	0xbca70d50	-0.02039209
71	0xbca70d50	-0.02039209
72	0x3d270d68	0.04078427
73	0xbd7a9428	-0.06117645
74	0xbda70d70	-0.0815686
75	0xb3000000	-2.9802322e-08
76	0xbd7a9428	-0.06117645
77	0xbca70d80	-0.02039218
78	0x3d270d78	0.04078433
79	0x3d7a9428	0.06117645
80	0x3bb3e740	0.0054902136
81	0xbda70d74	-0.08156863
82	0xb3c00000	-8.940697e-08
83	0xbda3d708	-0.07999998
84	0xbdd0d0d1	-0.101960786
85	0x3d270d70	0.0407843
86	0xbdd0d0d1	-0.101960786
87	0x3dd0d0d1	0.101960786
88	0x3da70d74	0.08156863
89	0xbca70db0	-0.020392269
90	0x3ca70d60	0.02039212
91	0x34400000	1.7881393e-07
92	0xbda70d74	-0.08156863
93	0x3d270d50	0.04078418
94	0xbd270d80	-0.04078436
95	0xbdd0d0d1	-0.101960786
96	0xbc808070	-0.015686244
97	0x3d270d78	0.04078433
98	0x3c40c060	0.011764616
99	0xbb808040	-0.0039215386
100	0xbbcd9b00	-0.006274581
101	0x3da70d74	0.08156863
102	0x33c00000	8.940697e-08
103	0x3ca70d30	0.02039203
104	0xb2800000	-1.4901161e-08
105	0xbd7a941c	-0.061176404
106	0x3c7427e0	0.014902085
107	0x3d270d9c	0.040784463
108	0xbca70d68	-0.020392135
109	0x3ccd9a70	0.025098056
110	0x3da70d6a	0.081568554
111	0xbca70d58	-0.020392105
112	0xbd270d68	-0.04078427
113	0xbd270d68	-0.04078427
114	0x3d270d74	0.040784314
115	0xb3c00000	-8.940697e-08
116	0xbdd0d0d1	-0.101960786
117	0xbd7a9428	-0.06117645
118	0x3dd0d0d1	0.101960786
119	0x3d13c6f8	0.036078423
120	0xbdcd9a74	-0.10039225
121	0x3d270d40	0.04078412
122	0x3d270d68	0.04078427
123	0x3da70d6a	0.081568554
124	0xbd270d78	-0.04078433
125	0xbd3a5440	-0.045490503
126	0x3da70d74	0.08156863
127	0xbda0a0a4	-0.0784314
128	0xbda70d74	-0.08156863
129	0xbca70d30	-0.02039203
130	0xbd270d68	-0.04078427
131	0x3da70d5c	0.08156845
132	0xbda70d5c	-0.08156845
133	0x3dd0d0d1	0.101960786
134	0x3da70d74	0.08156863
135	0xbd7a9408	-0.06117633
136	0xbd270d90	-0.04078442
137	0xbca70d30	-0.02039203
138	0x3d7a9420	0.06117642
139	0xbd7a9430	-0.06117648
140	0xbdd0d0d1	-0.101960786
141	0x3ca70d80	0.02039218
142	0x3da70d70	0.0815686
143	0xbda70d6c	-0.08156857
144	0xbca70d60	-0.02039212
145	0x3c0080c0	0.007843196
146	0x3d922bdc	0.07137272
147	0xbda70d74	-0.08156863
148	0xbd7a9430	-0.06117648
149	0xbdd0d0d1	-0.101960786
150	0x3ca70d90	0.02039221
151	0x3dd0d0d0	0.10196078
152	0x3da70d74	0.08156863
153	0x3d674dd8	0.056470722
154	0x3d7a9458	0.061176628
155	0x3d7a9428	0.06117645
156	0xbd7a9418	-0.06117639
157	0xbd86ed5c	-0.065882415
158	0xbda70d76	-0.08156864
159	0xbca70d78	-0.020392165
160	0x3da70d74	0.08156863
161	0xbdd0d0d1	-0.101960786
162	0xbca70da8	-0.020392254
163	0x3d270d58	0.04078421
164	0x32800000	1.4901161e-08
165	0x3d270dd4	0.040784672
166	0x3d742768	0.059607893
167	0x3cba53c8	0.022745028
168	0x3d472da4	0.04862751
169	0xbda70d74	-0.08156863
170	0xbd2a43ec	-0.04156868
171	0x3d270d64	0.040784255
172	0x3d7a93f8	0.06117627
173	0xbd7a945c	-0.061176643
174	0x3ca70d78	0.020392165
175	0x3d270d18	0.04078397
176	0xbda70d6f	-0.08156859
177	0x34200000	1.4901161e-07
178	0x3ca70d30	0.02039203
179	0x3ca70cc8	0.020391837
180	0xbd7a9428	-0.06117645
181	0x3da70d70	0.0815686
182	0x3da70d74	0.08156863
183	0xbd270d68	-0.04078427
184	0xbd7a9428	-0.06117645
185	0x3ca70d58	0.020392105
186	0x3d270d70	0.0407843
187	0x3d7a9450	0.061176598
188	0x3da70d70	0.0815686
189	0x3da70d78	0.08156866
190	0x3d270d40	0.04078412
191	0xbda70d80	-0.08156872
192	0xbdabdf14	-0.08392158
193	0x3dd0d0d1	0.101960786
194	0x3ca70d50	0.02039209
195	0xbda70d74	-0.08156863
196	0xbda70d74	-0.08156863
197	0xbda0a09e	-0.07843135
198	0xbd270d68	-0.04078427
199	0xbc808090	-0.015686303
200	0xbda0a09e	-0.07843135
201	0x3da70d72	0.08156861
202	0x3b1a3580	0.0023530424
203	0x3da70d72	0.08156861
204	0xbd20a09c	-0.03921567
205	0x3d40c0e8	0.04705897
206	0xbd371d7c	-0.044705853
207	0x3d270d64	0.040784255
208	0xbca70db0	-0.020392269
209	0xbca70e10	-0.020392448
210	0xbd1a33c8	-0.03764704
211	0xb4200000	-1.4901161e-07
212	0xbd270d68	-0.04078427
213	0xbd270d78	-0.04078433
214	0x3dd0d0cc	0.10196075
215	0xbd270d78	-0.04078433
216	0xbd16fd38	-0.036862582
217	0x3da70d74	0.08156863
218	0x3d7a9428	0.06117645
219	0x3d270d60	0.04078424
220	0x00000000	0.0
221	0xbda70d7c	-0.08156869
222	0x3c33e700	0.010980368
223	0xbd7a9430	-0.06117648
224	0xbda70d74	-0.08156863
225	0xbdd0d0d1	-0.101960786
226	0xbd06ed70	-0.03294128
227	0x3d7a9420	0.06117642
228	0xbd7a9430	-0.06117648
229	0xbb9a3400	-0.004705906
230	0x3da70d70	0.0815686
231	0xbdd0d0d1	-0.101960786
232	0xbd7a9420	-0.06117642
233	0x3d7a9420	0.06117642
234	0xbca70de0	-0.020392358
235	0xbd270d60	-0.04078424
236	0xbd7a9410	-0.06117636
237	0xbd60e0e0	-0.054901958
238	0xbd270da0	-0.04078448
239	0xbda70d70	-0.0815686
240	0x3ca70d80	0.02039218
241	0x3da70d70	0.0815686
242	0xbca70d60	-0.02039212
243	0x3d909090	0.07058823
244	0x3d7a9460	0.061176658
245	0xbca70d20	-0.020392
246	0xbdd0d0d0	-0.10196078
247	0xbd270d70	-0.0407843
248	0xbdd0d0d1	-0.101960786
249	0x3d7a9480	0.061176777
250	0x3da70d70	0.0815686
251	0x3d7a9420	0.06117642
252	0xbda70d70	-0.0815686
253	0xbd7a9420	-0.06117642
254	0xbca70cf0	-0.020391911
255	0xbda8a884	-0.08235267
