genUAPonQT/PTQ/singlemodel/x_noisetr10000_w2a2_26.npy (npy, 12416 bytes, 1 tensors)

array f4 [1, 32, 32, 3]
2.9802322e-08 -0.02039215 -0.04078427 -0.02039221 0.06117651 -0.04078445 0.005490154 -0.025098056
-0.011764854 0.017254919 -0.02039209 0.04078427 -0.040784255 -0.027450964 -0.040784165 -0.061176434
-0.101960786 -0.061176434 0.101960786 0.08156861 -0.04941182 -0.040784225 -0.08156863 -0.08156863
-0.040784284 -0.020392224 0.01176469 -1.0430813e-07 0.05254902 0.056470588 -0.08156863 -0.061176434
-0.020392075 -0.020392433 -0.08156863 -0.101960786 0.101960786 0.07215681 0.040784195 0.034509793
-0.009411797 -0.10196075 0.04078445 -0.0023529232 -0.043137223 -0.101960786 -0.07058826 -0.0007843375
-0.101960786 -0.07058826 -0.02352944 0.08078441 0.04078433 -0.06117657 0.061176628 0.04078424
-0.101960786 -0.017254919 -0.042352885 -0.052549034 0.02039221 0.036078423 0.101960786 -0.08156863
-0.07058826 -0.0047059357 -0.01333347 0.0054900944 -0.004705906 0.04078415 0.101960786 0.07686269
-0.04078433 -0.02039203 0.06117654 0.020391911 -0.0062745214 0.07137233 0.061176598 -0.08156863
-0.06117657 0.07686287 -0.06117651 -0.0047059655 0.036078453 -0.07058817 -0.04078424 0.04078436
0.036078393 5.9604645e-08 -0.09411764 0.09882355 -0.01019603 -0.10196078 -0.020392 -0.02039206
-0.014117688 0.06117639 -0.014117748 -0.057255 0.02039221 0.02039221 -0.04705867 -0.06117639
-0.04078421 0.020392165 -0.020392373 0.020392165 0.044705912 0.017254815 0.020392045 -0.010195985
-0.034509704 -0.101960786 0.020391986 -0.057254955 0.0039215535 -0.029019639 0.0039215535 0.040784284
-0.081568584 -0.101960786 -0.037647143 0.044705883 0.000784263 0.020391926 0.061176628 0.040784493
0.02039221 -0.077647135 -0.040784404 -0.101960786 -1.0430813e-07 -0.010196075 0.061176434 0.10196069
0.04078427 0.08156863 -0.08156863 -0.08156863 0.02039209 0.02039203 -0.043137282 -0.040784508
0.06117657 0.06117651 0.101960786 -0.04078433 0.08156887 -0.027450949 -0.03372553 0.036078423
-0.08156863 -0.10196075 -0.021960765 1.7881393e-07 0.08156863 0.06117633 0.0 -0.04078427
-0.05098036 -0.02039212 0.038431376 -0.00627476 -0.01647067 -0.06117651 -0.04078433 0.02039218
-0.101960786 -0.058823496 -0.035294175 0.101960786 -0.101960786 -0.05725494 0.061176658 -0.06117621
-0.06117657 0.02039224 -0.06117651 -0.02039212 -0.05725497 0.02039206 -0.02039218 -0.10196078
0.021960735 0.08156872 0.0611763 0.101960786 0.101960786 -0.058823526 -0.06117642 -0.10196078
-0.04078427 0.02039209 0.035294145 -0.06431374 -0.101960786 0.0015685856 0.0039215833 -0.08156862
-0.061176434 7.4505806e-08 -0.040784337 -0.101960786 -0.036862776 1.4901161e-08 -0.04862748 0.020391986
-0.061176404 -0.040784284 -0.040784314 -0.101960786 -0.08156863 0.015686288 0.020392075 -0.019607887
-0.020392075 -0.061176494 -0.057254985 -0.059607968 -0.061176464 0.028235301 2.9802322e-08 -0.04078439
-0.08156863 -8.940697e-08 0.061176434 0.101960786 -0.101960786 -0.101960786 -0.02039209 0.02039209
0.02039215 -0.025098115 0.020392329 0.06117648 0.032941252 -0.02039215 -0.02039221 0.06117654
-0.08156863 -0.04078427 -0.08156857 0.061176658 0.07764709 -0.011764675 0.025097996 0.06117642
2.9802322e-08 0.02039209 -0.04078415 -0.04078433 -0.04078445 0.02039215 -0.011764705 -0.043137282
00000000: 0000 0033 700d a7bc 680d 27bd 900d a7bc
00000010: 3894 7a3d 980d 27bd c0e6 b33b 709a cdbc
00000020: 60c1 40bc 305a 8d3c 500d a7bc 680d 273d
00000030: 640d 27bd d8e0 e0bc 4c0d 27bd 2494 7abd
00000040: d1d0 d0bd 2494 7abd d1d0 d03d 720d a73d
00000050: 0c64 4abd 5c0d 27bd 740d a7bd 740d a7bd
00000060: 6c0d 27bd 980d a7bc b0c0 403c 0000 e0b3
00000070: a43d 573d b44d 673d 740d a7bd 2494 7abd
00000080: 480d a7bc 080e a7bc 740d a7bd d1d0 d0bd
00000090: d1d0 d03d f3c6 933d 540d 273d 245a 0d3d
000000a0: f033 1abc ccd0 d0bd 980d 273d 8033 1abb
000000b0: a8b0 30bd d1d0 d0bd 9490 90bd 009c 4dba
000000c0: d1d0 d0bd 9490 90bd d0c0 c0bc 4c72 a53d
000000d0: 780d 273d 4894 7abd 5894 7a3d 600d 273d
000000e0: d1d0 d0bd 305a 8dbc 387a 2dbd a83d 57bd
000000f0: 900d a73c f8c6 133d d1d0 d03d 740d a7bd
00000100: 9490 90bd 4034 9abb a074 5abc 40e6 b33b
00000110: 0034 9abb 480d 273d d1d0 d03d 306a 9d3d
00000120: 780d 27bd 300d a7bc 4094 7a3d f00c a73c
00000130: 809a cdbb a82b 923d 5094 7a3d 740d a7bd
00000140: 4894 7abd 486a 9d3d 3894 7abd 8034 9abb
00000150: 00c7 133d 8890 90bd 600d 27bd 800d 273d
00000160: f0c6 133d 0000 8033 c0c0 c0bd 0064 ca3d
00000170: 400d 27bc d0d0 d0bd 200d a7bc 400d a7bc
00000180: e04d 67bc 1894 7a3d 204e 67bc 3884 6abd
00000190: 900d a73c 900d a73c 98c0 40bd 1894 7abd
000001a0: 580d 27bd 780d a73c e80d a7bc 780d a73c
000001b0: 8c1d 373d f859 8d3c 380d a73c 100d 27bc
000001c0: 0c5a 0dbd d1d0 d0bd 180d a73c 2c84 6abd
000001d0: 6080 803b 98ba edbc 6080 803b 6c0d 273d
000001e0: 6e0d a7bd d1d0 d0bd e433 1abd 841d 373d
000001f0: 0097 4d3a f80c a73c 5894 7a3d a40d 273d
00000200: 900d a73c 7605 9fbd 8c0d 27bd d1d0 d0bd
00000210: 0000 e0b3 700d 27bc 2494 7a3d c4d0 d03d
00000220: 680d 273d 740d a73d 740d a7bd 740d a7bd
00000230: 500d a73c 300d a73c b8b0 30bd a80d 27bd
00000240: 4894 7a3d 3894 7a3d d1d0 d03d 780d 27bd
00000250: 940d a73d d0e0 e0bc c823 0abd f8c6 133d
00000260: 740d a7bd ccd0 d0bd 10e7 b3bc 0000 4034
00000270: 740d a73d 0894 7a3d 0000 0000 680d 27bd
00000280: c8d0 50bd 600d a7bc 386a 1d3d 809c cdbb
00000290: 80ed 86bc 3894 7abd 780d 27bd 800d a73c
000002a0: d1d0 d0bd e8f0 70bd a090 10bd d1d0 d03d
000002b0: d1d0 d0bd 2884 6abd 6094 7a3d e893 7abd
000002c0: 4894 7abd a00d a73c 3894 7abd 600d a7bc
000002d0: 3084 6abd 400d a73c 800d a7bc d0d0 d0bd
000002e0: 00e7 b33c 800d a73d 0094 7a3d d1d0 d03d
000002f0: d1d0 d03d f0f0 70bd 2094 7abd d0d0 d0bd
00000300: 680d 27bd 500d a73c 9890 103d ecb6 83bd
00000310: d1d0 d0bd 0099 cd3a a080 803b 730d a7bd
00000320: 2494 7abd 0000 a033 7a0d 27bd d1d0 d0bd
00000330: 6cfd 16bd 0000 8032 9c2d 47bd 180d a73c
00000340: 1c94 7abd 6c0d 27bd 740d 27bd d1d0 d0bd
00000350: 740d a7bd 8880 803c 480d a73c b8a0 a0bc
00000360: 480d a7bc 3494 7abd 3484 6abd 7c27 74bd
00000370: 2c94 7abd b84d e73c 0000 0033 880d 27bd
00000380: 740d a7bd 0000 c0b3 2494 7a3d d1d0 d03d
00000390: d1d0 d0bd d1d0 d0bd 500d a7bc 500d a73c
000003a0: 700d a73c 909a cdbc d00d a73c 3094 7a3d
000003b0: 68ed 063d 700d a7bc 900d a7bc 4094 7a3d
000003c0: 740d a7bd 680d 27bd 6c0d a7bd 6094 7a3d
000003d0: 7005 9f3d a0c0 40bc 509a cd3c 2094 7a3d
000003e0: 0000 0033 500d a73c 480d 27bd 780d 27bd
000003f0: 980d 27bd 700d a73c c0c0 40bc b8b0 30bd
