genUAPonQT/PTQ/singlemodel/x_noiseraw10000_w2a2_32.npy (npy, 12416 bytes, 1 tensors)

array f4 [1, 32, 32, 3]
000000 70 9a 4d bd 40 9a cd 3c d0 33 1a bc 62 9a cd bd
       -0.05019611 0.025097966 -0.009411767 -0.10039212
000010 6c 9a cd bd 68 9a cd bd e6 53 ba 3d 5c 9a 4d bd
       -0.10039219 -0.10039216 0.090980336 -0.050196037
000020 66 9a cd bd 98 33 9a 3d a0 9a cd bc 88 9a cd bc
       -0.10039215 0.07529372 -0.025098145 -0.0250981
000030 20 9a cd 3c 81 80 00 be 5c 94 7a bd ce 33 9a bd
       0.025097907 -0.1254902 -0.061176643 -0.07529412
000040 6a 9a cd bd 62 9a cd bd e0 33 9a bd 90 90 10 bd
       -0.10039218 -0.10039212 -0.075294256 -0.035294116
000050 00 00 80 b3 68 25 bf 3d b8 23 8a bd 00 00 40 b4
       -5.9604645e-08 0.093333066 -0.06745094 -1.7881393e-07
000060 20 9a cd 3c d0 33 9a bd d0 33 9a bd f8 c6 93 3d
       0.025097907 -0.07529414 -0.07529414 0.07215685
000070 00 c7 93 3c e0 63 4a bd 10 e7 33 bd 20 9a cd 3c
       0.018039227 -0.049411654 -0.04392153 0.025097907
000080 e0 33 9a bd 60 9a cd 3c 40 9a cd 3c 80 9a 4d bd
       -0.075294256 0.025098026 0.025097966 -0.05019617
000090 80 80 00 be 81 80 00 be 81 80 00 be 50 ed 06 3d
       -0.12549019 -0.1254902 -0.1254902 0.032941163
0000a0 d8 43 aa 3d 64 80 00 3e 80 e7 33 bc 80 9a cd bc
       0.083137214 0.12548977 -0.010980487 -0.025098085
0000b0 d0 33 9a bd 40 5a 8d bc 40 7a ad bc 00 9a cd ba
       -0.07529414 -0.017254949 -0.021176457 -0.0015686154
0000c0 a0 2d c7 3c a0 4d e7 3c 78 80 00 3e 68 9a cd bd
       0.024313748 0.028235257 0.12549007 -0.10039216
0000d0 d0 33 9a bd 80 9a cd bc d0 33 9a 3d 38 ed 86 3d
       -0.07529414 -0.025098085 0.07529414 0.06588215
0000e0 20 9a cd 3c b8 23 8a bd 00 c7 93 bc e8 33 9a bd
       0.025097907 -0.06745094 -0.018039227 -0.075294316
0000f0 c0 33 9a 3d 78 80 00 3e c8 33 9a 3d 80 9a cd bc
       0.07529402 0.12549007 0.07529408 -0.025098085
000100 81 80 00 be 60 ed 06 3d 18 e7 b3 bd 68 9a cd bd
       -0.1254902 0.032941222 -0.08784312 -0.10039216
000110 80 9a cd bc 20 0e a7 bc 40 7a ad bc 68 9a cd 3d
       -0.025098085 -0.020392478 -0.021176457 0.10039216
000120 d0 33 9a bd d0 33 9a bd 70 9a cd 3d 00 74 5a bc
       -0.07529414 -0.07529414 0.10039222 -0.013333321
000130 81 80 00 be c0 ba ed bc 50 9a 4d 3d 80 9a cd bc
       -0.1254902 -0.029019713 0.050195992 -0.025098085
000140 68 9a cd bd 38 62 95 bd 40 27 74 3c a0 2d 47 3d
       -0.10039216 -0.07294124 0.014901936 0.048627496
000150 00 98 cd 3b 30 07 54 bd 00 c7 93 3c 00 00 00 b4
       0.0062742233 -0.051764667 0.018039227 -1.1920929e-07
000160 80 80 00 be d0 33 9a bd d8 43 aa 3d 80 80 00 be
       -0.12549019 -0.07529414 0.083137214 -0.12549019
000170 c0 23 8a bd 80 9a cd bc 78 80 00 be 00 e7 b3 bb
       -0.067451 -0.025098085 -0.12549007 -0.005490184
000180 50 27 74 bd d0 33 9a bd 81 80 00 be 76 80 00 3e
       -0.059607804 -0.07529414 -0.1254902 0.12549004
000190 98 2d 47 3d 7e 80 00 be 81 80 00 3e 81 80 00 3e
       0.048627466 -0.12549016 0.1254902 0.1254902
0001a0 50 8a 3d bd 58 27 f4 3d 60 9a cd 3c 3c 07 54 bd
       -0.046274483 0.11921567 0.025098026 -0.05176471
0001b0 00 00 80 b3 d0 33 9a bd ce 33 9a bd 68 9a cd bd
       -5.9604645e-08 -0.07529414 -0.07529412 -0.10039216
0001c0 30 9a 4d 3d 20 07 d4 3c 80 80 00 3e 6c b2 e5 3d
       0.050195873 0.025882304 0.12549019 0.11215672
0001d0 60 9a cd bc c8 33 9a bd 80 80 00 be 80 80 00 be
       -0.025098026 -0.07529408 -0.12549019 -0.12549019
0001e0 20 8a 3d 3d 48 1f ec bd 81 80 00 be 00 34 1a bb
       0.046274304 -0.11529404 -0.1254902 -0.002352953
0001f0 80 ba ed 3c 20 9a cd 3c 68 9a cd bd 81 80 00 be
       0.029019594 0.025097907 -0.10039216 -0.1254902
000200 f0 f8 f8 bd 48 92 c5 3d c8 33 9a 3d 80 33 9a 3d
       -0.12156856 0.096470416 0.07529408 0.07529354
000210 81 80 00 be 00 e9 e8 bd d8 e0 e0 bd 50 8a 3d 3d
       -0.1254902 -0.11372566 -0.109803855 0.046274483
000220 e8 53 ba 3d a0 35 cf 3d 80 e6 b3 bb d0 33 9a 3d
       0.09098035 0.1011765 -0.005490124 0.07529414
000230 80 9a cd bc 80 80 00 be 68 05 9f bd 40 9a cd 3c
       -0.025098085 -0.12549019 -0.07764703 0.025097966
000240 e0 e0 60 3d 00 00 40 b4 18 84 ea 3d 81 80 00 be
       0.054901958 -1.7881393e-07 0.11450976 -0.1254902
000250 81 80 00 be 81 80 00 be 00 00 00 b4 80 9a cd bc
       -0.1254902 -0.1254902 -1.1920929e-07 -0.025098085
000260 40 9a cd 3c 00 e7 b3 bb c0 33 9a 3d d8 33 9a bd
       0.025097966 -0.005490184 0.07529402 -0.0752942
000270 c8 33 9a bd c8 33 9a bd 60 9a cd bd 60 9a cd 3c
       -0.07529408 -0.07529408 -0.1003921 0.025098026
000280 00 74 5a bc d0 33 9a bd 50 9a 4d 3d 68 9a cd bd
       -0.013333321 -0.07529414 0.050195992 -0.10039216
000290 80 9a cd bc 00 00 80 b3 c8 33 9a bd c8 33 9a bd
       -0.025098085 -5.9604645e-08 -0.07529408 -0.07529408
0002a0 00 e7 b3 bb 60 fd 16 3d 60 9a cd 3d c0 33 1a bc
       -0.005490184 0.03686273 0.1003921 -0.009411752
0002b0 80 3d 57 3d 60 9a 4d bd 50 9a 4d 3d 40 34 1a bc
       0.052548885 -0.05019605 0.050195992 -0.009411871
0002c0 81 80 00 be 80 80 80 3d 60 9a cd bc d8 33 9a bd
       -0.1254902 0.062745094 -0.025098026 -0.0752942
0002d0 60 9a cd 3d 60 9a cd 3c 70 9a 4d bd c0 33 9a 3d
       0.1003921 0.025098026 -0.05019611 0.07529402
0002e0 50 ed 06 3d b8 33 9a 3d 70 0d 27 3d 70 9a 4d bd
       0.032941163 0.07529396 0.0407843 -0.05019611
0002f0 10 e7 33 bd 40 e7 33 bc 60 9a cd bd 80 80 00 be
       -0.04392153 -0.010980427 -0.1003921 -0.12549019
000300 80 ca 7d 3d c0 9a cd bc 81 80 00 be 60 9a 4d 3d
       0.061960697 -0.025098205 -0.1254902 0.05019605
000310 00 9a cd ba 80 80 00 3c 60 27 74 bd e0 33 9a bc
       -0.0015686154 0.007843137 -0.059607863 -0.018823564
000320 7c 80 00 3e 6c 9a cd bd d0 33 9a bd 40 9a 4d bd
       0.12549013 -0.10039219 -0.07529414 -0.050195932
000330 c8 33 9a bd 88 ba 6d 3d 7a 80 00 3e 80 80 00 be
       -0.07529408 0.05803922 0.1254901 -0.12549019
000340 40 9a cd 3c 60 9a cd bc a0 3d 57 bd 80 ba ed 3c
       0.025097966 -0.025098026 -0.052549005 0.029019594
000350 00 c7 93 bc c0 9a cd bc 10 5a 0d bd 20 8c f2 bd
       -0.018039227 -0.025098205 -0.03450972 -0.11843133
000360 00 74 5a bc 40 ed 86 3d c0 33 9a 3d 00 c7 93 bc
       -0.013333321 0.065882206 0.07529402 -0.018039227
000370 80 9a cd bc a0 e0 e0 3c 40 7a 2d bd 81 80 00 be
       -0.025098085 0.02745086 -0.042352915 -0.1254902
000380 38 72 a5 bd 60 fd 16 3d 80 ba ed 3c a0 4d e7 3c
       -0.08078426 0.03686273 0.029019594 0.028235257
000390 81 80 00 be 81 80 00 be d0 33 9a bd 60 9a 4d 3d
       -0.1254902 -0.1254902 -0.07529414 0.05019605
0003a0 58 9a 4d 3d 81 80 00 3e 00 00 00 00 a0 9a cd bc
       0.05019602 0.1254902 0.0 -0.025098145
0003b0 a0 9a cd bc 81 80 00 be 80 80 00 be 68 9a cd bd
       -0.025098145 -0.1254902 -0.12549019 -0.10039216
0003c0 40 9a 4d 3d a0 33 9a 3d 80 0d 27 3d 80 9a cd bc
       0.050195932 0.07529378 0.04078436 -0.025098085
0003d0 60 fd 16 3d f0 be 8b 3d 80 9a cd bc 81 80 00 3e
       0.03686273 0.06823528 -0.025098085 0.1254902
0003e0 00 00 80 b3 81 80 00 be 60 9a cd bc b8 2b 92 bd
       -5.9604645e-08 -0.1254902 -0.025098026 -0.07137245
0003f0 40 9a cd 3c e8 53 ba bd d8 2b 92 bd 00 00 80 b3
       0.025097966 -0.09098035 -0.07137269 -5.9604645e-08
