genUAPonQT/PTQ/singlemodel/x_noiseraw10000_w8a8_16.npy (npy, 12416 bytes, 1 tensors)

array f4 [1, 32, 32, 3]
00000000: 809a cdbc d033 1abd c833 1abd 209a cd3c
00000010: c099 4d3c 709a cdbc 629a 4dbd 5c9a cdbc
00000020: 609a 4d3c e099 4dbc b1b0 30bd da33 1abd
00000030: b833 1a3d 689a 4d3c c633 1abd 689a 4dbd
00000040: 3c9a cdbc 0000 c0b2 487a 2dbd 445a 8dbc
00000050: 749a cdbc c033 1abd 8873 5a3c 669a 4dbd
00000060: 8180 803d 0000 80b3 7480 803c 00e7 b3bc
00000070: d033 1abd 7a9a 4dbd 7880 80bd 7880 80bd
00000080: 3a9a 4dbd 609a cdbc 409a cd3c 989a 4dbc
00000090: 809a cdbc 009b cdbb da33 1abd d033 1a3d
000000a0: 809a cd3c 789a 4d3d c033 1abd 609a cd3c
000000b0: ce33 1abd 209a cdbc d033 1abd ce33 1abd
000000c0: 609a 4d3d 609a cdbc 7a9a 4dbd 609a 4d3d
000000d0: 409a 4d3c 409a cd3c 209a cdbc 8180 803d
000000e0: c07f 80bb 609a 4dbd f043 2abd e099 4d3c
000000f0: 8180 803d d033 1a3d 909a cd3c 609a cdbc
00000100: 6c9a 4dbd ce33 1abd c033 1abd 8099 4d3c
00000110: 409a 4d3c 0000 8033 80ba ed3c 0000 0000
00000120: b033 1abd c099 cd3c 609a 4dbd 7880 803d
00000130: d033 1a3d 609a 4dbd 509a 4dbd 709a 4dbd
00000140: 8180 80bd 609a cdbc 609a cdbc c09a 4dbc
00000150: a09a cdbc c09a 4dbc c033 1a3d 8180 803d
00000160: 609a 4dbd 0000 0000 c033 1a3d 80ed 86bc
00000170: 0000 0000 609a cd3c 009b 4dbc 209a cd3c
00000180: 409a 4d3c 009c cd3a 0000 c033 0000 8033
00000190: 305a 0dbd 6080 003c 409a 4d3c 0000 80b3
000001a0: 209a 4d3c 0000 0033 949a cdbc c633 1abd
000001b0: c033 1a3d 489a 4d3d 209b 4d3c 8180 80bd
000001c0: 669a 4dbd 0000 d033 0000 20b4 6c9a cd3c
000001d0: 547a adbc 909a cd3c 68fd 163d 5080 803b
000001e0: f033 1abd 809a cdbc b6b0 30bd c033 1a3d
000001f0: d0c0 403c 6c9a cdbc 0000 0000 009a 4dbc
00000200: d633 1abd d033 1abd 0000 00b4 7d80 80bd
00000210: c099 4d3c c080 003c a09a 4dbc 509a 4dbd
00000220: 609a 4dbd b09a cd3c 8180 80bd a833 1a3d
00000230: 409a cd3c c033 1a3d 409a 4dbc b0a0 20bd
00000240: d033 1a3d 609a 4dbd 609a 4dbd 409a 4d3c
00000250: 8180 80bd 6c9a 4dbd 8180 803d a833 1a3d
00000260: 589a 4d3d 609a cdbc 409a cdbc e09a 4dbc
00000270: e099 4d3c b823 0a3d aa9a 4dbd 20e7 b33c
00000280: 8180 80bd 8180 80bd a02d 473d c09a 4dbc
00000290: 3874 5abc 8180 803d 8180 803d 009a cd3c
000002a0: 8180 80bd 409a cdbc 809a cdbc c033 1a3d
000002b0: d633 1a3d 0000 0032 409a 4dbc 609a cdbc
000002c0: 005a 0d3c 509a 4d3d 8180 80bd d033 1abd
000002d0: d033 1a3d 809a 4d3c 80ba ed3c 8180 803d
000002e0: d033 1abd c033 1abd 609a 4d3d c059 0d3c
000002f0: 8180 80bd 8180 80bd 8080 80bd 409a 4d3c
00000300: 009b 4d3c c0e0 e0bc 909a cdbc 0034 1abc
00000310: 8180 80bd 589a 4dbd 609a cd3c 80ba edbc
00000320: 0000 0033 509a 4d3d 8080 003c 0000 18b4
00000330: c09a 4dbc 305a 8dbc 0000 00b3 7c80 80bd
00000340: 609a 4dbc 0000 c0b2 889a 4d3d 7c80 803d
00000350: 689a 4d3c 305a 8dbc 8180 80bd f49a cdbc
00000360: 609a 4dbd 409a 4dbc 5a9a 4dbd d033 1a3d
00000370: 80ba ed3c 6e80 003d e099 4d3c 809a cd3c
00000380: b073 da3c 8080 80bd 809a 4d3c 709a cd3c
00000390: 809a 4d3c c09a 4dbc 909a cd3c 409a cdbc
000003a0: 8080 803b 507a adbc 8081 803b 809a 4dbc
000003b0: 209a cd3c 609a cdbc 409a 4dbc 609a 4dbd
000003c0: c09a 4d3c 609a cdbc c433 1a3d c0ba ed3c
000003d0: 609a 4dbd 609a 4dbd 209a cd3c 689a 4dbd
000003e0: 689a 4dbd 600d 273d 58ed 063d 309a cd3c
000003f0: 0000 80b4 609a cdbc 50a0 a03c 009a 4dbc
-0.025098085 -0.03764707 -0.03764704 0.025097907 0.012548864 -0.025098056 -0.05019606 -0.025098018
0.012549013 -0.012548894 -0.043137256 -0.037647106 0.03764698 0.01254902 -0.03764703 -0.05019608
-0.025097959 -2.2351742e-08 -0.042352945 -0.017254956 -0.025098063 -0.03764701 0.013333209 -0.050196074
0.0627451 -5.9604645e-08 0.015686251 -0.021960735 -0.03764707 -0.05019615 -0.062745035 -0.062745035
-0.05019591 -0.025098026 0.025097966 -0.012549065 -0.025098085 -0.006274581 -0.037647106 0.03764707
0.025098085 0.05019614 -0.03764701 0.025098026 -0.03764706 -0.025097907 -0.03764707 -0.03764706
0.05019605 -0.025098026 -0.05019615 0.05019605 0.012548983 0.025097966 -0.025097907 0.0627451
-0.003921479 -0.05019605 -0.041568696 0.012548894 0.0627451 0.03764707 0.025098115 -0.025098026
-0.050196096 -0.03764706 -0.03764701 0.012548804 0.012548983 5.9604645e-08 0.029019594 0.0
-0.03764695 0.025097728 -0.05019605 0.062745035 0.03764707 -0.05019605 -0.050195992 -0.05019611
-0.0627451 -0.025098026 -0.025098026 -0.012549102 -0.025098145 -0.012549102 0.03764701 0.0627451
-0.05019605 0.0 0.03764701 -0.01647067 0.0 0.025098026 -0.012549162 0.025097907
0.012548983 0.001568675 8.940697e-08 5.9604645e-08 -0.034509838 0.007843107 0.012548983 -5.9604645e-08
0.012548953 2.9802322e-08 -0.025098123 -0.03764703 0.03764701 0.050195962 0.012549192 -0.0627451
-0.050196074 9.685755e-08 -1.4901161e-07 0.025098048 -0.021176495 0.025098115 0.03686276 0.003921546
-0.037647188 -0.025098085 -0.043137275 0.03764701 0.01176472 -0.025098048 0.0 -0.0125489235
-0.03764709 -0.03764707 -1.1920929e-07 -0.06274507 0.012548864 0.007843196 -0.0125490725 -0.050195992
-0.05019605 0.025098175 -0.0627451 0.03764692 0.025097966 0.03764701 -0.012548983 -0.039215744
0.03764707 -0.05019605 -0.05019605 0.012548983 -0.0627451 -0.050196096 0.0627451 0.03764692
0.05019602 -0.025098026 -0.025097966 -0.012549132 0.012548894 0.03372547 -0.050196327 0.021960795
-0.0627451 -0.0627451 0.048627496 -0.012549102 -0.013333373 0.0627451 0.0627451 0.025097847
-0.0627451 -0.025097966 -0.025098085 0.03764701 0.03764709 7.450581e-09 -0.012548983 -0.025098026
0.008627415 0.050195992 -0.0627451 -0.03764707 0.03764707 0.012549043 0.029019594 0.0627451
-0.03764707 -0.03764701 0.05019605 0.008627355 -0.0627451 -0.0627451 -0.062745094 0.012548983
0.012549162 -0.02745092 -0.025098115 -0.009411812 -0.0627451 -0.05019602 0.025098026 -0.029019594
2.9802322e-08 0.050195992 0.007843137 -1.4156103e-07 -0.012549102 -0.017254919 -2.9802322e-08 -0.062745064
-0.012549013 -2.2351742e-08 0.0501962 0.062745064 0.01254902 -0.017254919 -0.0627451 -0.025098301
-0.05019605 -0.012548983 -0.05019603 0.03764707 0.029019594 0.03137248 0.012548894 0.025098085
0.026666492 -0.062745094 0.012549043 0.025098056 0.012549043 -0.012549102 0.025098115 -0.025097966
0.0039215684 -0.021176487 0.0039216876 -0.012549043 0.025097907 -0.025098026 -0.012548983 -0.05019605
0.012549102 -0.025098026 0.037647024 0.029019713 -0.05019605 -0.05019605 0.025097907 -0.05019608
-0.05019608 0.04078424 0.032941192 0.025097936 -2.3841858e-07 -0.025098026 0.019607693 -0.0125489235
