genUAPonQT/PTQ/singlemodel/x_noiseraw10000_w4a4_32.npy (npy, 12416 bytes, 1 tensors)

array f4 [1, 32, 32, 3]
-0.050195858 0.050195947 -0.003921569 -0.050196096 0.1254902 -7.357448e-08 -0.10039215 -1.07102096e-07
0.050196007 0.050196182 0.050196186 -0.023529412 -0.07529427 -0.0423529 -0.07529415 -0.025098056
0.011764735 -0.014117673 -0.10039216 -0.05019605 0.0250981 0.12549016 0.0478431 0.07529412
-0.05019611 -0.07529409 -0.1254902 0.025097907 0.050195932 0.07529403 -0.1254902 -0.02901961
0.025097892 -5.9604645e-08 -0.10039215 -0.056470558 0.050195992 -0.02509801 0.08313717 -0.07529415
-0.050196126 -0.1003923 -0.0956863 0.075294055 0.10039205 0.025097653 -0.050196126 -0.05490196
-0.050196186 -0.07529415 -0.05490196 -0.026666626 0.07529373 0.025097918 0.10039208 0.045490183
-0.050980393 0.061176427 -0.050196096 -0.040000007 0.025098063 0.054117627 0.00705887 -0.11764706
-0.09803922 -0.02509804 -0.07529412 -0.08235292 -0.017255027 0.04627446 0.1254902 0.025097948
-0.10980392 -0.050196037 -0.07529412 0.061960764 0.10039217 0.10039206 -0.07529412 -0.050196156
0.025098069 0.10039193 -0.040784284 -0.05568616 0.1254902 -0.07529412 -0.007058874 -0.03137255
-0.050196096 -0.07529412 -0.018823517 0.10039212 0.04941179 -0.03529412 -0.050196096 -0.10039216
0.051764682 -0.050196216 0.014117672 1.3038516e-08 -1.0617077e-07 0.10039212 0.07529421 -0.025098074
-0.007843138 0.07529409 0.02823533 0.02509795 -0.043137193 0.007843152 -0.09568621 -0.07529414
0.0815686 0.050980404 0.1113725 0.08784318 0.12549011 0.06509805 -0.1254902 -0.07529415
0.08549014 -5.9604645e-08 0.050196066 -0.08078426 0.05019605 0.07529409 0.1254902 -0.0007843375
0.1254902 -0.05019611 -0.1254902 -0.07529412 0.05725491 -0.07529412 -0.10039216 0.0
0.1254902 0.12549017 -0.10039216 -0.030588433 0.10039196 0.1254902 0.10039214 -0.050196066
0.050196037 -0.10039216 -0.10039216 -0.10039218 -0.09333329 -0.060392126 0.10039217 0.1254902
0.07529409 0.04941175 -0.10039216 -0.07529412 0.087843105 0.12549013 0.025097977 0.10745097
0.10039217 -0.050980393 -0.10039209 -0.10039209 0.050196152 0.075294115 0.12549013 -0.025098098
-0.013333306 0.050196 -1.9744039e-07 -0.10039215 0.05019609 0.025097828 0.028235272 0.0313725
-0.0007843245 1.4901161e-08 -2.2351742e-07 -0.057255015 -0.07529412 -0.07529412 -0.060392126 -0.10039215
-0.02509813 0.1254902 -0.08156867 0.061960742 0.075294115 -0.026666656 0.11058814 0.04549016
0.10039216 0.02509801 -0.007843138 0.06509803 -0.050196096 -0.014117646 0.09960784 -0.025098074
0.1254902 -0.050195977 -0.07137255 -0.07529412 0.003921509 0.07529406 0.057254896 -0.04705882
-0.050195932 0.111372456 0.076078445 -0.05019611 0.04549019 -0.08235282 0.050195932 -0.10039218
-0.048627436 0.06039214 0.03372547 -0.032941163 -0.087843046 0.0760784 0.100391984 -0.07529415
0.014117643 -0.049411774 -0.10039209 -0.08549018 -0.10039216 -0.02509819 -0.10039216 -0.07529414
-0.050196186 -0.017254904 -0.10039216 0.015686288 0.065098025 0.10039209 -0.030588254 -0.04862745
0.050195888 0.10745098 0.0054901987 -0.10039218 -0.10039216 -0.017254874 -0.030588254 -0.007843301
0.024313759 0.111372545 0.05333335 -7.8231096e-08 -7.4505806e-08 -0.078431375 -0.07529412 0.1254902
00000000: 2c9a 4dbd 449a 4d3d 8180 80bb 6c9a 4dbd
00000010: 8180 003e 0000 9eb3 669a cdbd 0000 e6b3
00000020: 549a 4d3d 839a 4d3d 849a 4d3d c1c0 c0bc
00000030: e233 9abd 3c7a 2dbd d233 9abd 709a cdbc
00000040: e0c0 403c d04d 67bc 689a cdbd 609a 4dbd
00000050: 889a cd3c 7e80 003e 20f7 433d ce33 9a3d
00000060: 709a 4dbd ca33 9abd 8180 00be 209a cd3c
00000070: 409a 4d3d c233 9a3d 8180 00be 88ba edbc
00000080: 189a cd3c 0000 80b3 669a cdbd ac4d 67bd
00000090: 509a 4d3d 589a cdbc d243 aa3d d233 9abd
000000a0: 749a 4dbd 7a9a cdbd 2ef7 c3bd c533 9a3d
000000b0: 599a cd3d 9899 cd3c 749a 4dbd e1e0 60bd
000000c0: 849a 4dbd d233 9abd e1e0 60bd f873 dabc
000000d0: 9933 9a3d 269a cd3c 5d9a cd3d ea53 3a3d
000000e0: d1d0 50bd 2294 7a3d 6c9a 4dbd 0cd7 23bd
000000f0: 749a cd3c 72aa 5d3d 184e e73b f1f0 f0bd
00000100: c9c8 c8bd 689a cdbc ce33 9abd a6a8 a8bd
00000110: 6a5a 8dbc 4a8a 3d3d 8180 003e 369a cd3c
00000120: e1e0 e0bd 5c9a 4dbd ce33 9abd 92ca 7d3d
00000130: 699a cd3d 5a9a cd3d ce33 9abd 7c9a 4dbd
00000140: 779a cd3c 499a cd3d 6c0d 27bd 2c17 64bd
00000150: 8180 003e ce33 9abd 204e e7bb 8180 00bd
00000160: 6c9a 4dbd ce33 9abd c733 9abc 629a cd3d
00000170: 0464 4a3d 9190 10bd 6c9a 4dbd 689a cdbd
00000180: 3407 543d 8c9a 4dbd cf4d 673c 0000 6032
00000190: 0000 e4b3 629a cd3d da33 9a3d 7a9a cdbc
000001a0: 8180 00bc ca33 9a3d c74d e73c 379a cd3c
000001b0: a0b0 30bd 9080 003c 22f7 c3bd d033 9abd
000001c0: 700d a73d d4d0 503d 4417 e43d 20e7 b33d
000001d0: 7b80 003e 2052 853d 8180 00be d233 9abd
000001e0: 7415 af3d 0000 80b3 649a 4d3d 3872 a5bd
000001f0: 609a 4d3d ca33 9a3d 8180 003e 009c 4dba
00000200: 8180 003e 709a 4dbd 8180 00be ce33 9abd
00000210: 2084 6a3d ce33 9abd 689a cdbd 0000 0000
00000220: 8180 003e 7f80 003e 689a cdbd 9894 fabc
00000230: 4d9a cd3d 8180 003e 659a cd3d 649a 4dbd
00000240: 5c9a 4d3d 689a cdbd 689a cdbd 6a9a cdbd
00000250: 8625 bfbd bc5d 77bd 699a cd3d 8180 003e
00000260: ca33 9a3d fa63 4a3d 689a cdbd ce33 9abd
00000270: 16e7 b33d 7c80 003e 469a cd3c 410f dc3d
00000280: 699a cd3d d1d0 50bd 5e9a cdbd 5e9a cdbd
00000290: 7b9a 4d3d cd33 9a3d 7c80 003e 879a cdbc
000002a0: f073 5abc 529a 4d3d 0000 54b4 669a cdbd
000002b0: 6a9a 4d3d f699 cd3c a84d e73c 7380 003d
000002c0: 209b 4dba 0000 8032 0000 70b4 3c84 6abd
000002d0: ce33 9abd ce33 9abd bc5d 77bd 669a cdbd
000002e0: 989a cdbc 8180 003e 7a0d a7bd 8cca 7d3d
000002f0: cd33 9a3d 0874 dabc 097c e23d e453 3a3d
00000300: 689a cd3d 589a cd3c 8180 00bc 1e52 853d
00000310: 6c9a 4dbd b34d 67bc 32ff cb3d 7a9a cdbc
00000320: 8180 003e 4c9a 4dbd c62b 92bd ce33 9abd
00000330: 0080 803b c633 9a3d 1c84 6a3d c0c0 40bd
00000340: 409a 4dbd 3e17 e43d 04cf 9b3d 709a 4dbd
00000350: ec53 3a3d 98a8 a8bd 409a 4d3d 6a9a cdbd
00000360: 902d 47bd c05d 773d b823 0a3d 50ed 06bd
00000370: 0ee7 b3bd fece 9b3d 509a cd3d d233 9abd
00000380: b04d 673c 0064 4abd 5e9a cdbd 7a15 afbd
00000390: 689a cdbd b89a cdbc 689a cdbd d033 9abd
000003a0: 849a 4dbd 285a 8dbc 689a cdbd 8880 803c
000003b0: 1d52 853d 5e9a cd3d 3894 fabc 942d 47bd
000003c0: 349a 4d3d 420f dc3d 20e7 b33b 6a9a cdbd
000003d0: 689a cdbd 185a 8dbc 3894 fabc 3081 00bc
000003e0: a62d c73c 4a17 e43d 1274 5a3d 0000 a8b3
000003f0: 0000 a0b3 a1a0 a0bd ce33 9abd 8180 003e
